{"format": "graph-model", "generatedBy": "2.4.1", "convertedBy": "TensorFlow.js Converter v3.5.0", "signature": {"inputs": {"input_1:0": {"name": "input_1:0", "dtype": "DT_FLOAT", "tensorShape": {"dim": [{"size": "-1"}, {"size": "128"}, {"size": "128"}, {"size": "1"}]}}}, "outputs": {"Identity_1:0": {"name": "Identity_1:0", "dtype": "DT_FLOAT", "tensorShape": {"dim": [{"size": "-1"}, {"size": "2"}]}}, "Identity:0": {"name": "Identity:0", "dtype": "DT_FLOAT", "tensorShape": {"dim": [{"size": "-1"}, {"size": "128"}, {"size": "128"}, {"size": "1"}]}}}}, "modelTopology": {"node": [{"name": "StatefulPartitionedCall/model_1/model/image_pooling_BN/batchnorm/mul", "op": "Const", "attr": {"value": {"tensor": {"dtype": "DT_FLOAT", "tensorShape": {"dim": [{"size": "256"}]}}}, "dtype": {"type": "DT_FLOAT"}}}, {"name": "StatefulPartitionedCall/model_1/model/image_pooling_BN/batchnorm/sub", "op": "Const", "attr": {"dtype": {"type": "DT_FLOAT"}, "value": {"tensor": {"dtype": "DT_FLOAT", "tensorShape": {"dim": [{"size": "256"}]}}}}}, {"name": "StatefulPartitionedCall/model_1/model/aspp_resize/resize/size", "op": "Const", "attr": {"dtype": {"type": "DT_INT32"}, "value": {"tensor": {"dtype": "DT_INT32", "tensorShape": {"dim": [{"size": "2"}]}}}}}, {"name": "StatefulPartitionedCall/model_1/model/aspp0/Conv2D/merged_input", "op": "Const", "attr": {"value": {"tensor": {"dtype": "DT_FLOAT", "tensorShape": {"dim": [{"size": "1"}, {"size": "1"}, {"size": "96"}, {"size": "256"}]}}}, "dtype": {"type": "DT_FLOAT"}}}, {"name": "StatefulPartitionedCall/model_1/model/aspp0_BN/batchnorm/sub", "op": "Const", "attr": {"value": {"tensor": {"dtype": "DT_FLOAT", "tensorShape": {"dim": [{"size": "256"}]}}}, "dtype": {"type": "DT_FLOAT"}}}, {"name": "StatefulPartitionedCall/model_1/model/concatenate/concat/axis", "op": "Const", "attr": {"value": {"tensor": {"dtype": "DT_INT32", "tensorShape": {}}}, "dtype": {"type": "DT_INT32"}}}, {"name": "StatefulPartitionedCall/model_1/model/concat_projection/Conv2D/merged_input", "op": "Const", "attr": {"dtype": {"type": "DT_FLOAT"}, "value": {"tensor": {"dtype": "DT_FLOAT", "tensorShape": {"dim": [{"size": "1"}, {"size": "1"}, {"size": "512"}, {"size": "256"}]}}}}}, {"name": "StatefulPartitionedCall/model_1/model/concat_projection_BN/batchnorm/sub", "op": "Const", "attr": {"dtype": {"type": "DT_FLOAT"}, "value": {"tensor": {"dtype": "DT_FLOAT", "tensorShape": {"dim": [{"size": "256"}]}}}}}, {"name": "StatefulPartitionedCall/model_1/model/logits_semantic/Conv2D/ReadVariableOp", "op": "Const", "attr": {"dtype": {"type": "DT_FLOAT"}, "value": {"tensor": {"dtype": "DT_FLOAT", "tensorShape": {"dim": [{"size": "1"}, {"size": "1"}, {"size": "256"}, {"size": "1"}]}}}}}, {"name": "StatefulPartitionedCall/model_1/model/logits_semantic/BiasAdd/ReadVariableOp", "op": "Const", "attr": {"value": {"tensor": {"dtype": "DT_FLOAT", "tensorShape": {"dim": [{"size": "1"}]}}}, "dtype": {"type": "DT_FLOAT"}}}, {"name": "StatefulPartitionedCall/model_1/model/pred_resize/resize/size", "op": "Const", "attr": {"value": {"tensor": {"dtype": "DT_INT32", "tensorShape": {"dim": [{"size": "2"}]}}}, "dtype": {"type": "DT_INT32"}}}, {"name": "StatefulPartitionedCall/model_1/model/activation_29/activation_16/mul/y", "op": "Const", "attr": {"value": {"tensor": {"dtype": "DT_FLOAT", "tensorShape": {}}}, "dtype": {"type": "DT_FLOAT"}}}, {"name": "StatefulPartitionedCall/model_1/model/activation_29/activation_16/add/y", "op": "Const", "attr": {"value": {"tensor": {"dtype": "DT_FLOAT", "tensorShape": {}}}, "dtype": {"type": "DT_FLOAT"}}}, {"name": "StatefulPartitionedCall/model_1/model/activation_28/activation_15/mul/y", "op": "Const", "attr": {"value": {"tensor": {"dtype": "DT_FLOAT", "tensorShape": {}}}, "dtype": {"type": "DT_FLOAT"}}}, {"name": "StatefulPartitionedCall/model_1/model/activation_28/activation_15/add/y", "op": "Const", "attr": {"dtype": {"type": "DT_FLOAT"}, "value": {"tensor": {"dtype": "DT_FLOAT", "tensorShape": {}}}}}, {"name": "StatefulPartitionedCall/model_1/model/activation_26/activation_14/mul/y", "op": "Const", "attr": {"value": {"tensor": {"dtype": "DT_FLOAT", "tensorShape": {}}}, "dtype": {"type": "DT_FLOAT"}}}, {"name": "StatefulPartitionedCall/model_1/model/activation_26/activation_14/add/y", "op": "Const", "attr": {"dtype": {"type": "DT_FLOAT"}, "value": {"tensor": {"dtype": "DT_FLOAT", "tensorShape": {}}}}}, {"name": "StatefulPartitionedCall/model_1/model/activation_25/activation_13/mul/y", "op": "Const", "attr": {"dtype": {"type": "DT_FLOAT"}, "value": {"tensor": {"dtype": "DT_FLOAT", "tensorShape": {}}}}}, {"name": "StatefulPartitionedCall/model_1/model/activation_25/activation_13/add/y", "op": "Const", "attr": {"dtype": {"type": "DT_FLOAT"}, "value": {"tensor": {"dtype": "DT_FLOAT", "tensorShape": {}}}}}, {"name": "StatefulPartitionedCall/model_1/model/activation_23/activation_12/mul/y", "op": "Const", "attr": {"dtype": {"type": "DT_FLOAT"}, "value": {"tensor": {"dtype": "DT_FLOAT", "tensorShape": {}}}}}, {"name": "StatefulPartitionedCall/model_1/model/activation_23/activation_12/add/y", "op": "Const", "attr": {"value": {"tensor": {"dtype": "DT_FLOAT", "tensorShape": {}}}, "dtype": {"type": "DT_FLOAT"}}}, {"name": "StatefulPartitionedCall/model_1/model/activation_22/activation_11/mul/y", "op": "Const", "attr": {"value": {"tensor": {"dtype": "DT_FLOAT", "tensorShape": {}}}, "dtype": {"type": "DT_FLOAT"}}}, {"name": "StatefulPartitionedCall/model_1/model/activation_22/activation_11/add/y", "op": "Const", "attr": {"value": {"tensor": {"dtype": "DT_FLOAT", "tensorShape": {}}}, "dtype": {"type": "DT_FLOAT"}}}, {"name": "StatefulPartitionedCall/model_1/model/activation_20/activation_10/mul/y", "op": "Const", "attr": {"dtype": {"type": "DT_FLOAT"}, "value": {"tensor": {"dtype": "DT_FLOAT", "tensorShape": {}}}}}, {"name": "StatefulPartitionedCall/model_1/model/activation_20/activation_10/add/y", "op": "Const", "attr": {"dtype": {"type": "DT_FLOAT"}, "value": {"tensor": {"dtype": "DT_FLOAT", "tensorShape": {}}}}}, {"name": "StatefulPartitionedCall/model_1/model/activation_19/activation_9/mul/y", "op": "Const", "attr": {"value": {"tensor": {"dtype": "DT_FLOAT", "tensorShape": {}}}, "dtype": {"type": "DT_FLOAT"}}}, {"name": "StatefulPartitionedCall/model_1/model/activation_19/activation_9/add/y", "op": "Const", "attr": {"dtype": {"type": "DT_FLOAT"}, "value": {"tensor": {"dtype": "DT_FLOAT", "tensorShape": {}}}}}, {"name": "StatefulPartitionedCall/model_1/model/activation_17/activation_8/mul/y", "op": "Const", "attr": {"value": {"tensor": {"dtype": "DT_FLOAT", "tensorShape": {}}}, "dtype": {"type": "DT_FLOAT"}}}, {"name": "StatefulPartitionedCall/model_1/model/activation_17/activation_8/add/y", "op": "Const", "attr": {"value": {"tensor": {"dtype": "DT_FLOAT", "tensorShape": {}}}, "dtype": {"type": "DT_FLOAT"}}}, {"name": "StatefulPartitionedCall/model_1/model/activation_16/activation_7/mul/y", "op": "Const", "attr": {"dtype": {"type": "DT_FLOAT"}, "value": {"tensor": {"dtype": "DT_FLOAT", "tensorShape": {}}}}}, {"name": "StatefulPartitionedCall/model_1/model/activation_16/activation_7/add/y", "op": "Const", "attr": {"dtype": {"type": "DT_FLOAT"}, "value": {"tensor": {"dtype": "DT_FLOAT", "tensorShape": {}}}}}, {"name": "StatefulPartitionedCall/model_1/model/activation_14/activation_6/mul/y", "op": "Const", "attr": {"dtype": {"type": "DT_FLOAT"}, "value": {"tensor": {"dtype": "DT_FLOAT", "tensorShape": {}}}}}, {"name": "StatefulPartitionedCall/model_1/model/activation_14/activation_6/add/y", "op": "Const", "attr": {"value": {"tensor": {"dtype": "DT_FLOAT", "tensorShape": {}}}, "dtype": {"type": "DT_FLOAT"}}}, {"name": "StatefulPartitionedCall/model_1/model/activation_13/activation_5/mul/y", "op": "Const", "attr": {"value": {"tensor": {"dtype": "DT_FLOAT", "tensorShape": {}}}, "dtype": {"type": "DT_FLOAT"}}}, {"name": "StatefulPartitionedCall/model_1/model/activation_13/activation_5/add/y", "op": "Const", "attr": {"value": {"tensor": {"dtype": "DT_FLOAT", "tensorShape": {}}}, "dtype": {"type": "DT_FLOAT"}}}, {"name": "StatefulPartitionedCall/model_1/model/activation_11/activation_4/mul/y", "op": "Const", "attr": {"dtype": {"type": "DT_FLOAT"}, "value": {"tensor": {"dtype": "DT_FLOAT", "tensorShape": {}}}}}, {"name": "StatefulPartitionedCall/model_1/model/activation_11/activation_4/add/y", "op": "Const", "attr": {"dtype": {"type": "DT_FLOAT"}, "value": {"tensor": {"dtype": "DT_FLOAT", "tensorShape": {}}}}}, {"name": "StatefulPartitionedCall/model_1/model/activation_10/activation_3/mul/y", "op": "Const", "attr": {"dtype": {"type": "DT_FLOAT"}, "value": {"tensor": {"dtype": "DT_FLOAT", "tensorShape": {}}}}}, {"name": "StatefulPartitionedCall/model_1/model/activation_10/activation_3/add/y", "op": "Const", "attr": {"dtype": {"type": "DT_FLOAT"}, "value": {"tensor": {"dtype": "DT_FLOAT", "tensorShape": {}}}}}, {"name": "StatefulPartitionedCall/model_1/model/activation_8/activation_2/mul/y", "op": "Const", "attr": {"dtype": {"type": "DT_FLOAT"}, "value": {"tensor": {"dtype": "DT_FLOAT", "tensorShape": {}}}}}, {"name": "StatefulPartitionedCall/model_1/model/activation_8/activation_2/add/y", "op": "Const", "attr": {"dtype": {"type": "DT_FLOAT"}, "value": {"tensor": {"dtype": "DT_FLOAT", "tensorShape": {}}}}}, {"name": "StatefulPartitionedCall/model_1/model/activation_7/activation_1/mul/y", "op": "Const", "attr": {"value": {"tensor": {"dtype": "DT_FLOAT", "tensorShape": {}}}, "dtype": {"type": "DT_FLOAT"}}}, {"name": "StatefulPartitionedCall/model_1/model/activation_7/activation_1/add/y", "op": "Const", "attr": {"dtype": {"type": "DT_FLOAT"}, "value": {"tensor": {"dtype": "DT_FLOAT", "tensorShape": {}}}}}, {"name": "StatefulPartitionedCall/model_1/model/expanded_conv_2/project/BatchNorm/batchnorm/sub", "op": "Const", "attr": {"value": {"tensor": {"dtype": "DT_FLOAT", "tensorShape": {"dim": [{"size": "24"}]}}}, "dtype": {"type": "DT_FLOAT"}}}, {"name": "StatefulPartitionedCall/model_1/model/activation/activation/mul/y", "op": "Const", "attr": {"value": {"tensor": {"dtype": "DT_FLOAT", "tensorShape": {}}}, "dtype": {"type": "DT_FLOAT"}}}, {"name": "StatefulPartitionedCall/model_1/model/activation/activation/add/y", "op": "Const", "attr": {"value": {"tensor": {"dtype": "DT_FLOAT", "tensorShape": {}}}, "dtype": {"type": "DT_FLOAT"}}}, {"name": "StatefulPartitionedCall/model_1/gray2rgb/Tile/multiples", "op": "Const", "attr": {"value": {"tensor": {"dtype": "DT_INT32", "tensorShape": {"dim": [{"size": "4"}]}}}, "dtype": {"type": "DT_INT32"}}}, {"name": "ConstantFolding/StatefulPartitionedCall/model_1/model/input_normalize/truediv_recip", "op": "Const", "attr": {"value": {"tensor": {"dtype": "DT_FLOAT", "tensorShape": {}}}, "dtype": {"type": "DT_FLOAT"}}}, {"name": "StatefulPartitionedCall/model_1/model/input_normalize/sub/y", "op": "Const", "attr": {"value": {"tensor": {"dtype": "DT_FLOAT", "tensorShape": {}}}, "dtype": {"type": "DT_FLOAT"}}}, {"name": "StatefulPartitionedCall/model_1/model/Conv_pad/Pad/paddings", "op": "Const", "attr": {"dtype": {"type": "DT_INT32"}, "value": {"tensor": {"dtype": "DT_INT32", "tensorShape": {"dim": [{"size": "4"}, {"size": "2"}]}}}}}, {"name": "StatefulPartitionedCall/model_1/model/Conv/Conv2D/merged_input", "op": "Const", "attr": {"dtype": {"type": "DT_FLOAT"}, "value": {"tensor": {"dtype": "DT_FLOAT", "tensorShape": {"dim": [{"size": "3"}, {"size": "3"}, {"size": "3"}, {"size": "16"}]}}}}}, {"name": "StatefulPartitionedCall/model_1/model/Conv/BatchNorm/batchnorm/sub", "op": "Const", "attr": {"dtype": {"type": "DT_FLOAT"}, "value": {"tensor": {"dtype": "DT_FLOAT", "tensorShape": {"dim": [{"size": "16"}]}}}}}, {"name": "StatefulPartitionedCall/model_1/model/expanded_conv/depthwise/Conv/depthwise/ReadVariableOp", "op": "Const", "attr": {"dtype": {"type": "DT_FLOAT"}, "value": {"tensor": {"dtype": "DT_FLOAT", "tensorShape": {"dim": [{"size": "3"}, {"size": "3"}, {"size": "16"}, {"size": "1"}]}}}}}, {"name": "StatefulPartitionedCall/model_1/model/expanded_conv/depthwise/BatchNorm/batchnorm/mul", "op": "Const", "attr": {"value": {"tensor": {"dtype": "DT_FLOAT", "tensorShape": {"dim": [{"size": "16"}]}}}, "dtype": {"type": "DT_FLOAT"}}}, {"name": "StatefulPartitionedCall/model_1/model/expanded_conv/depthwise/BatchNorm/batchnorm/sub", "op": "Const", "attr": {"dtype": {"type": "DT_FLOAT"}, "value": {"tensor": {"dtype": "DT_FLOAT", "tensorShape": {"dim": [{"size": "16"}]}}}}}, {"name": "StatefulPartitionedCall/model_1/model/expanded_conv/squeeze_excite/AvgPool/Mean/reduction_indices", "op": "Const", "attr": {"value": {"tensor": {"dtype": "DT_INT32", "tensorShape": {"dim": [{"size": "2"}]}}}, "dtype": {"type": "DT_INT32"}}}, {"name": "StatefulPartitionedCall/model_1/model/reshape/strided_slice/stack", "op": "Const", "attr": {"dtype": {"type": "DT_INT32"}, "value": {"tensor": {"dtype": "DT_INT32", "tensorShape": {"dim": [{"size": "1"}]}}}}}, {"name": "StatefulPartitionedCall/model_1/model/reshape/strided_slice/stack_1", "op": "Const", "attr": {"value": {"tensor": {"dtype": "DT_INT32", "tensorShape": {"dim": [{"size": "1"}]}}}, "dtype": {"type": "DT_INT32"}}}, {"name": "StatefulPartitionedCall/model_1/model/reshape/strided_slice/stack_2", "op": "Const", "attr": {"dtype": {"type": "DT_INT32"}, "value": {"tensor": {"dtype": "DT_INT32", "tensorShape": {"dim": [{"size": "1"}]}}}}}, {"name": "StatefulPartitionedCall/model_1/model/reshape/Reshape/shape/1", "op": "Const", "attr": {"value": {"tensor": {"dtype": "DT_INT32", "tensorShape": {}}}, "dtype": {"type": "DT_INT32"}}}, {"name": "StatefulPartitionedCall/model_1/model/reshape/Reshape/shape/2", "op": "Const", "attr": {"value": {"tensor": {"dtype": "DT_INT32", "tensorShape": {}}}, "dtype": {"type": "DT_INT32"}}}, {"name": "StatefulPartitionedCall/model_1/model/reshape/Reshape/shape/3", "op": "Const", "attr": {"value": {"tensor": {"dtype": "DT_INT32", "tensorShape": {}}}, "dtype": {"type": "DT_INT32"}}}, {"name": "StatefulPartitionedCall/model_1/model/expanded_conv/squeeze_excite/Conv/Conv2D/ReadVariableOp", "op": "Const", "attr": {"value": {"tensor": {"dtype": "DT_FLOAT", "tensorShape": {"dim": [{"size": "1"}, {"size": "1"}, {"size": "16"}, {"size": "8"}]}}}, "dtype": {"type": "DT_FLOAT"}}}, {"name": "StatefulPartitionedCall/model_1/model/expanded_conv/squeeze_excite/Conv/BiasAdd/ReadVariableOp", "op": "Const", "attr": {"value": {"tensor": {"dtype": "DT_FLOAT", "tensorShape": {"dim": [{"size": "8"}]}}}, "dtype": {"type": "DT_FLOAT"}}}, {"name": "StatefulPartitionedCall/model_1/model/expanded_conv/squeeze_excite/Conv_1/Conv2D/ReadVariableOp", "op": "Const", "attr": {"value": {"tensor": {"dtype": "DT_FLOAT", "tensorShape": {"dim": [{"size": "1"}, {"size": "1"}, {"size": "8"}, {"size": "16"}]}}}, "dtype": {"type": "DT_FLOAT"}}}, {"name": "StatefulPartitionedCall/model_1/model/expanded_conv/squeeze_excite/Conv_1/BiasAdd/ReadVariableOp", "op": "Const", "attr": {"dtype": {"type": "DT_FLOAT"}, "value": {"tensor": {"dtype": "DT_FLOAT", "tensorShape": {"dim": [{"size": "16"}]}}}}}, {"name": "StatefulPartitionedCall/model_1/model/activation_2/Const", "op": "Const", "attr": {"value": {"tensor": {"dtype": "DT_FLOAT", "tensorShape": {}}}, "dtype": {"type": "DT_FLOAT"}}}, {"name": "StatefulPartitionedCall/model_1/model/activation_2/Const_1", "op": "Const", "attr": {"dtype": {"type": "DT_FLOAT"}, "value": {"tensor": {"dtype": "DT_FLOAT", "tensorShape": {}}}}}, {"name": "StatefulPartitionedCall/model_1/model/activation_2/clip_by_value/Minimum/y", "op": "Const", "attr": {"value": {"tensor": {"dtype": "DT_FLOAT", "tensorShape": {}}}, "dtype": {"type": "DT_FLOAT"}}}, {"name": "StatefulPartitionedCall/model_1/model/activation_2/clip_by_value/y", "op": "Const", "attr": {"value": {"tensor": {"dtype": "DT_FLOAT", "tensorShape": {}}}, "dtype": {"type": "DT_FLOAT"}}}, {"name": "StatefulPartitionedCall/model_1/model/expanded_conv/project/Conv2D/merged_input", "op": "Const", "attr": {"dtype": {"type": "DT_FLOAT"}, "value": {"tensor": {"dtype": "DT_FLOAT", "tensorShape": {"dim": [{"size": "1"}, {"size": "1"}, {"size": "16"}, {"size": "16"}]}}}}}, {"name": "StatefulPartitionedCall/model_1/model/expanded_conv/project/BatchNorm/batchnorm/sub", "op": "Const", "attr": {"value": {"tensor": {"dtype": "DT_FLOAT", "tensorShape": {"dim": [{"size": "16"}]}}}, "dtype": {"type": "DT_FLOAT"}}}, {"name": "StatefulPartitionedCall/model_1/model/expanded_conv_1/expand/Conv2D/merged_input", "op": "Const", "attr": {"value": {"tensor": {"dtype": "DT_FLOAT", "tensorShape": {"dim": [{"size": "1"}, {"size": "1"}, {"size": "16"}, {"size": "72"}]}}}, "dtype": {"type": "DT_FLOAT"}}}, {"name": "StatefulPartitionedCall/model_1/model/expanded_conv_1/expand/BatchNorm/batchnorm/sub", "op": "Const", "attr": {"value": {"tensor": {"dtype": "DT_FLOAT", "tensorShape": {"dim": [{"size": "72"}]}}}, "dtype": {"type": "DT_FLOAT"}}}, {"name": "StatefulPartitionedCall/model_1/model/expanded_conv_1/depthwise/Conv/depthwise/ReadVariableOp", "op": "Const", "attr": {"dtype": {"type": "DT_FLOAT"}, "value": {"tensor": {"dtype": "DT_FLOAT", "tensorShape": {"dim": [{"size": "3"}, {"size": "3"}, {"size": "72"}, {"size": "1"}]}}}}}, {"name": "StatefulPartitionedCall/model_1/model/expanded_conv_1/depthwise/BatchNorm/batchnorm/mul", "op": "Const", "attr": {"dtype": {"type": "DT_FLOAT"}, "value": {"tensor": {"dtype": "DT_FLOAT", "tensorShape": {"dim": [{"size": "72"}]}}}}}, {"name": "StatefulPartitionedCall/model_1/model/expanded_conv_1/depthwise/BatchNorm/batchnorm/sub", "op": "Const", "attr": {"value": {"tensor": {"dtype": "DT_FLOAT", "tensorShape": {"dim": [{"size": "72"}]}}}, "dtype": {"type": "DT_FLOAT"}}}, {"name": "StatefulPartitionedCall/model_1/model/expanded_conv_1/project/Conv2D/merged_input", "op": "Const", "attr": {"dtype": {"type": "DT_FLOAT"}, "value": {"tensor": {"dtype": "DT_FLOAT", "tensorShape": {"dim": [{"size": "1"}, {"size": "1"}, {"size": "72"}, {"size": "24"}]}}}}}, {"name": "StatefulPartitionedCall/model_1/model/expanded_conv_1/project/BatchNorm/batchnorm/sub", "op": "Const", "attr": {"value": {"tensor": {"dtype": "DT_FLOAT", "tensorShape": {"dim": [{"size": "24"}]}}}, "dtype": {"type": "DT_FLOAT"}}}, {"name": "StatefulPartitionedCall/model_1/model/expanded_conv_2/expand/Conv2D/merged_input", "op": "Const", "attr": {"value": {"tensor": {"dtype": "DT_FLOAT", "tensorShape": {"dim": [{"size": "1"}, {"size": "1"}, {"size": "24"}, {"size": "88"}]}}}, "dtype": {"type": "DT_FLOAT"}}}, {"name": "StatefulPartitionedCall/model_1/model/expanded_conv_2/expand/BatchNorm/batchnorm/sub", "op": "Const", "attr": {"dtype": {"type": "DT_FLOAT"}, "value": {"tensor": {"dtype": "DT_FLOAT", "tensorShape": {"dim": [{"size": "88"}]}}}}}, {"name": "StatefulPartitionedCall/model_1/model/expanded_conv_2/depthwise/Conv/depthwise/ReadVariableOp", "op": "Const", "attr": {"value": {"tensor": {"dtype": "DT_FLOAT", "tensorShape": {"dim": [{"size": "3"}, {"size": "3"}, {"size": "88"}, {"size": "1"}]}}}, "dtype": {"type": "DT_FLOAT"}}}, {"name": "StatefulPartitionedCall/model_1/model/expanded_conv_2/depthwise/BatchNorm/batchnorm/mul", "op": "Const", "attr": {"value": {"tensor": {"dtype": "DT_FLOAT", "tensorShape": {"dim": [{"size": "88"}]}}}, "dtype": {"type": "DT_FLOAT"}}}, {"name": "StatefulPartitionedCall/model_1/model/expanded_conv_2/depthwise/BatchNorm/batchnorm/sub", "op": "Const", "attr": {"value": {"tensor": {"dtype": "DT_FLOAT", "tensorShape": {"dim": [{"size": "88"}]}}}, "dtype": {"type": "DT_FLOAT"}}}, {"name": "StatefulPartitionedCall/model_1/model/expanded_conv_2/project/Conv2D/merged_input", "op": "Const", "attr": {"value": {"tensor": {"dtype": "DT_FLOAT", "tensorShape": {"dim": [{"size": "1"}, {"size": "1"}, {"size": "88"}, {"size": "24"}]}}}, "dtype": {"type": "DT_FLOAT"}}}, {"name": "StatefulPartitionedCall/model_1/model/expanded_conv_3/expand/Conv2D/merged_input", "op": "Const", "attr": {"value": {"tensor": {"dtype": "DT_FLOAT", "tensorShape": {"dim": [{"size": "1"}, {"size": "1"}, {"size": "24"}, {"size": "96"}]}}}, "dtype": {"type": "DT_FLOAT"}}}, {"name": "StatefulPartitionedCall/model_1/model/expanded_conv_3/expand/BatchNorm/batchnorm/sub", "op": "Const", "attr": {"value": {"tensor": {"dtype": "DT_FLOAT", "tensorShape": {"dim": [{"size": "96"}]}}}, "dtype": {"type": "DT_FLOAT"}}}, {"name": "StatefulPartitionedCall/model_1/model/expanded_conv_3/depthwise/Conv/depthwise/ReadVariableOp", "op": "Const", "attr": {"value": {"tensor": {"dtype": "DT_FLOAT", "tensorShape": {"dim": [{"size": "5"}, {"size": "5"}, {"size": "96"}, {"size": "1"}]}}}, "dtype": {"type": "DT_FLOAT"}}}, {"name": "StatefulPartitionedCall/model_1/model/expanded_conv_3/depthwise/BatchNorm/batchnorm/mul", "op": "Const", "attr": {"value": {"tensor": {"dtype": "DT_FLOAT", "tensorShape": {"dim": [{"size": "96"}]}}}, "dtype": {"type": "DT_FLOAT"}}}, {"name": "StatefulPartitionedCall/model_1/model/expanded_conv_3/depthwise/BatchNorm/batchnorm/sub", "op": "Const", "attr": {"value": {"tensor": {"dtype": "DT_FLOAT", "tensorShape": {"dim": [{"size": "96"}]}}}, "dtype": {"type": "DT_FLOAT"}}}, {"name": "StatefulPartitionedCall/model_1/model/expanded_conv_3/squeeze_excite/AvgPool/Mean/reduction_indices", "op": "Const", "attr": {"dtype": {"type": "DT_INT32"}, "value": {"tensor": {"dtype": "DT_INT32", "tensorShape": {"dim": [{"size": "2"}]}}}}}, {"name": "StatefulPartitionedCall/model_1/model/reshape_1/strided_slice/stack", "op": "Const", "attr": {"value": {"tensor": {"dtype": "DT_INT32", "tensorShape": {"dim": [{"size": "1"}]}}}, "dtype": {"type": "DT_INT32"}}}, {"name": "StatefulPartitionedCall/model_1/model/reshape_1/strided_slice/stack_1", "op": "Const", "attr": {"dtype": {"type": "DT_INT32"}, "value": {"tensor": {"dtype": "DT_INT32", "tensorShape": {"dim": [{"size": "1"}]}}}}}, {"name": "StatefulPartitionedCall/model_1/model/reshape_1/strided_slice/stack_2", "op": "Const", "attr": {"dtype": {"type": "DT_INT32"}, "value": {"tensor": {"dtype": "DT_INT32", "tensorShape": {"dim": [{"size": "1"}]}}}}}, {"name": "StatefulPartitionedCall/model_1/model/reshape_1/Reshape/shape/1", "op": "Const", "attr": {"value": {"tensor": {"dtype": "DT_INT32", "tensorShape": {}}}, "dtype": {"type": "DT_INT32"}}}, {"name": "StatefulPartitionedCall/model_1/model/reshape_1/Reshape/shape/2", "op": "Const", "attr": {"dtype": {"type": "DT_INT32"}, "value": {"tensor": {"dtype": "DT_INT32", "tensorShape": {}}}}}, {"name": "StatefulPartitionedCall/model_1/model/reshape_1/Reshape/shape/3", "op": "Const", "attr": {"dtype": {"type": "DT_INT32"}, "value": {"tensor": {"dtype": "DT_INT32", "tensorShape": {}}}}}, {"name": "StatefulPartitionedCall/model_1/model/expanded_conv_3/squeeze_excite/Conv/Conv2D/ReadVariableOp", "op": "Const", "attr": {"dtype": {"type": "DT_FLOAT"}, "value": {"tensor": {"dtype": "DT_FLOAT", "tensorShape": {"dim": [{"size": "1"}, {"size": "1"}, {"size": "96"}, {"size": "24"}]}}}}}, {"name": "StatefulPartitionedCall/model_1/model/expanded_conv_3/squeeze_excite/Conv/BiasAdd/ReadVariableOp", "op": "Const", "attr": {"value": {"tensor": {"dtype": "DT_FLOAT", "tensorShape": {"dim": [{"size": "24"}]}}}, "dtype": {"type": "DT_FLOAT"}}}, {"name": "StatefulPartitionedCall/model_1/model/expanded_conv_3/squeeze_excite/Conv_1/Conv2D/ReadVariableOp", "op": "Const", "attr": {"dtype": {"type": "DT_FLOAT"}, "value": {"tensor": {"dtype": "DT_FLOAT", "tensorShape": {"dim": [{"size": "1"}, {"size": "1"}, {"size": "24"}, {"size": "96"}]}}}}}, {"name": "StatefulPartitionedCall/model_1/model/expanded_conv_3/squeeze_excite/Conv_1/BiasAdd/ReadVariableOp", "op": "Const", "attr": {"value": {"tensor": {"dtype": "DT_FLOAT", "tensorShape": {"dim": [{"size": "96"}]}}}, "dtype": {"type": "DT_FLOAT"}}}, {"name": "StatefulPartitionedCall/model_1/model/activation_9/Const", "op": "Const", "attr": {"value": {"tensor": {"dtype": "DT_FLOAT", "tensorShape": {}}}, "dtype": {"type": "DT_FLOAT"}}}, {"name": "StatefulPartitionedCall/model_1/model/activation_9/Const_1", "op": "Const", "attr": {"dtype": {"type": "DT_FLOAT"}, "value": {"tensor": {"dtype": "DT_FLOAT", "tensorShape": {}}}}}, {"name": "StatefulPartitionedCall/model_1/model/activation_9/clip_by_value/Minimum/y", "op": "Const", "attr": {"dtype": {"type": "DT_FLOAT"}, "value": {"tensor": {"dtype": "DT_FLOAT", "tensorShape": {}}}}}, {"name": "StatefulPartitionedCall/model_1/model/activation_9/clip_by_value/y", "op": "Const", "attr": {"value": {"tensor": {"dtype": "DT_FLOAT", "tensorShape": {}}}, "dtype": {"type": "DT_FLOAT"}}}, {"name": "StatefulPartitionedCall/model_1/model/expanded_conv_3/project/Conv2D/merged_input", "op": "Const", "attr": {"dtype": {"type": "DT_FLOAT"}, "value": {"tensor": {"dtype": "DT_FLOAT", "tensorShape": {"dim": [{"size": "1"}, {"size": "1"}, {"size": "96"}, {"size": "40"}]}}}}}, {"name": "StatefulPartitionedCall/model_1/model/expanded_conv_3/project/BatchNorm/batchnorm/sub", "op": "Const", "attr": {"value": {"tensor": {"dtype": "DT_FLOAT", "tensorShape": {"dim": [{"size": "40"}]}}}, "dtype": {"type": "DT_FLOAT"}}}, {"name": "StatefulPartitionedCall/model_1/model/expanded_conv_4/expand/Conv2D/merged_input", "op": "Const", "attr": {"value": {"tensor": {"dtype": "DT_FLOAT", "tensorShape": {"dim": [{"size": "1"}, {"size": "1"}, {"size": "40"}, {"size": "240"}]}}}, "dtype": {"type": "DT_FLOAT"}}}, {"name": "StatefulPartitionedCall/model_1/model/expanded_conv_4/expand/BatchNorm/batchnorm/sub", "op": "Const", "attr": {"dtype": {"type": "DT_FLOAT"}, "value": {"tensor": {"dtype": "DT_FLOAT", "tensorShape": {"dim": [{"size": "240"}]}}}}}, {"name": "StatefulPartitionedCall/model_1/model/expanded_conv_4/depthwise/Conv/depthwise/SpaceToBatchND/block_shape", "op": "Const", "attr": {"value": {"tensor": {"dtype": "DT_INT32", "tensorShape": {"dim": [{"size": "2"}]}}}, "dtype": {"type": "DT_INT32"}}}, {"name": "StatefulPartitionedCall/model_1/model/expanded_conv_4/depthwise/Conv/depthwise/SpaceToBatchND/paddings", "op": "Const", "attr": {"dtype": {"type": "DT_INT32"}, "value": {"tensor": {"dtype": "DT_INT32", "tensorShape": {"dim": [{"size": "2"}, {"size": "2"}]}}}}}, {"name": "StatefulPartitionedCall/model_1/model/expanded_conv_4/depthwise/Conv/depthwise/ReadVariableOp", "op": "Const", "attr": {"value": {"tensor": {"dtype": "DT_FLOAT", "tensorShape": {"dim": [{"size": "5"}, {"size": "5"}, {"size": "240"}, {"size": "1"}]}}}, "dtype": {"type": "DT_FLOAT"}}}, {"name": "StatefulPartitionedCall/model_1/model/expanded_conv_4/depthwise/Conv/depthwise/BatchToSpaceND/block_shape", "op": "Const", "attr": {"dtype": {"type": "DT_INT32"}, "value": {"tensor": {"dtype": "DT_INT32", "tensorShape": {"dim": [{"size": "2"}]}}}}}, {"name": "StatefulPartitionedCall/model_1/model/expanded_conv_4/depthwise/Conv/depthwise/BatchToSpaceND/crops", "op": "Const", "attr": {"value": {"tensor": {"dtype": "DT_INT32", "tensorShape": {"dim": [{"size": "2"}, {"size": "2"}]}}}, "dtype": {"type": "DT_INT32"}}}, {"name": "StatefulPartitionedCall/model_1/model/expanded_conv_4/depthwise/BatchNorm/batchnorm/mul", "op": "Const", "attr": {"value": {"tensor": {"dtype": "DT_FLOAT", "tensorShape": {"dim": [{"size": "240"}]}}}, "dtype": {"type": "DT_FLOAT"}}}, {"name": "StatefulPartitionedCall/model_1/model/expanded_conv_4/depthwise/BatchNorm/batchnorm/sub", "op": "Const", "attr": {"dtype": {"type": "DT_FLOAT"}, "value": {"tensor": {"dtype": "DT_FLOAT", "tensorShape": {"dim": [{"size": "240"}]}}}}}, {"name": "StatefulPartitionedCall/model_1/model/expanded_conv_4/squeeze_excite/AvgPool/Mean/reduction_indices", "op": "Const", "attr": {"value": {"tensor": {"dtype": "DT_INT32", "tensorShape": {"dim": [{"size": "2"}]}}}, "dtype": {"type": "DT_INT32"}}}, {"name": "StatefulPartitionedCall/model_1/model/reshape_2/strided_slice/stack", "op": "Const", "attr": {"value": {"tensor": {"dtype": "DT_INT32", "tensorShape": {"dim": [{"size": "1"}]}}}, "dtype": {"type": "DT_INT32"}}}, {"name": "StatefulPartitionedCall/model_1/model/reshape_2/strided_slice/stack_1", "op": "Const", "attr": {"dtype": {"type": "DT_INT32"}, "value": {"tensor": {"dtype": "DT_INT32", "tensorShape": {"dim": [{"size": "1"}]}}}}}, {"name": "StatefulPartitionedCall/model_1/model/reshape_2/strided_slice/stack_2", "op": "Const", "attr": {"value": {"tensor": {"dtype": "DT_INT32", "tensorShape": {"dim": [{"size": "1"}]}}}, "dtype": {"type": "DT_INT32"}}}, {"name": "StatefulPartitionedCall/model_1/model/reshape_2/Reshape/shape/1", "op": "Const", "attr": {"value": {"tensor": {"dtype": "DT_INT32", "tensorShape": {}}}, "dtype": {"type": "DT_INT32"}}}, {"name": "StatefulPartitionedCall/model_1/model/reshape_2/Reshape/shape/2", "op": "Const", "attr": {"dtype": {"type": "DT_INT32"}, "value": {"tensor": {"dtype": "DT_INT32", "tensorShape": {}}}}}, {"name": "StatefulPartitionedCall/model_1/model/reshape_2/Reshape/shape/3", "op": "Const", "attr": {"dtype": {"type": "DT_INT32"}, "value": {"tensor": {"dtype": "DT_INT32", "tensorShape": {}}}}}, {"name": "StatefulPartitionedCall/model_1/model/expanded_conv_4/squeeze_excite/Conv/Conv2D/ReadVariableOp", "op": "Const", "attr": {"dtype": {"type": "DT_FLOAT"}, "value": {"tensor": {"dtype": "DT_FLOAT", "tensorShape": {"dim": [{"size": "1"}, {"size": "1"}, {"size": "240"}, {"size": "64"}]}}}}}, {"name": "StatefulPartitionedCall/model_1/model/expanded_conv_4/squeeze_excite/Conv/BiasAdd/ReadVariableOp", "op": "Const", "attr": {"dtype": {"type": "DT_FLOAT"}, "value": {"tensor": {"dtype": "DT_FLOAT", "tensorShape": {"dim": [{"size": "64"}]}}}}}, {"name": "StatefulPartitionedCall/model_1/model/expanded_conv_4/squeeze_excite/Conv_1/Conv2D/ReadVariableOp", "op": "Const", "attr": {"value": {"tensor": {"dtype": "DT_FLOAT", "tensorShape": {"dim": [{"size": "1"}, {"size": "1"}, {"size": "64"}, {"size": "240"}]}}}, "dtype": {"type": "DT_FLOAT"}}}, {"name": "StatefulPartitionedCall/model_1/model/expanded_conv_4/squeeze_excite/Conv_1/BiasAdd/ReadVariableOp", "op": "Const", "attr": {"dtype": {"type": "DT_FLOAT"}, "value": {"tensor": {"dtype": "DT_FLOAT", "tensorShape": {"dim": [{"size": "240"}]}}}}}, {"name": "StatefulPartitionedCall/model_1/model/activation_12/Const", "op": "Const", "attr": {"value": {"tensor": {"dtype": "DT_FLOAT", "tensorShape": {}}}, "dtype": {"type": "DT_FLOAT"}}}, {"name": "StatefulPartitionedCall/model_1/model/activation_12/Const_1", "op": "Const", "attr": {"value": {"tensor": {"dtype": "DT_FLOAT", "tensorShape": {}}}, "dtype": {"type": "DT_FLOAT"}}}, {"name": "StatefulPartitionedCall/model_1/model/activation_12/clip_by_value/Minimum/y", "op": "Const", "attr": {"value": {"tensor": {"dtype": "DT_FLOAT", "tensorShape": {}}}, "dtype": {"type": "DT_FLOAT"}}}, {"name": "StatefulPartitionedCall/model_1/model/activation_12/clip_by_value/y", "op": "Const", "attr": {"dtype": {"type": "DT_FLOAT"}, "value": {"tensor": {"dtype": "DT_FLOAT", "tensorShape": {}}}}}, {"name": "StatefulPartitionedCall/model_1/model/expanded_conv_4/project/Conv2D/merged_input", "op": "Const", "attr": {"dtype": {"type": "DT_FLOAT"}, "value": {"tensor": {"dtype": "DT_FLOAT", "tensorShape": {"dim": [{"size": "1"}, {"size": "1"}, {"size": "240"}, {"size": "40"}]}}}}}, {"name": "StatefulPartitionedCall/model_1/model/expanded_conv_4/project/BatchNorm/batchnorm/sub", "op": "Const", "attr": {"value": {"tensor": {"dtype": "DT_FLOAT", "tensorShape": {"dim": [{"size": "40"}]}}}, "dtype": {"type": "DT_FLOAT"}}}, {"name": "StatefulPartitionedCall/model_1/model/expanded_conv_5/expand/Conv2D/merged_input", "op": "Const", "attr": {"dtype": {"type": "DT_FLOAT"}, "value": {"tensor": {"dtype": "DT_FLOAT", "tensorShape": {"dim": [{"size": "1"}, {"size": "1"}, {"size": "40"}, {"size": "240"}]}}}}}, {"name": "StatefulPartitionedCall/model_1/model/expanded_conv_5/expand/BatchNorm/batchnorm/sub", "op": "Const", "attr": {"dtype": {"type": "DT_FLOAT"}, "value": {"tensor": {"dtype": "DT_FLOAT", "tensorShape": {"dim": [{"size": "240"}]}}}}}, {"name": "StatefulPartitionedCall/model_1/model/expanded_conv_5/depthwise/Conv/depthwise/SpaceToBatchND/block_shape", "op": "Const", "attr": {"dtype": {"type": "DT_INT32"}, "value": {"tensor": {"dtype": "DT_INT32", "tensorShape": {"dim": [{"size": "2"}]}}}}}, {"name": "StatefulPartitionedCall/model_1/model/expanded_conv_5/depthwise/Conv/depthwise/SpaceToBatchND/paddings", "op": "Const", "attr": {"dtype": {"type": "DT_INT32"}, "value": {"tensor": {"dtype": "DT_INT32", "tensorShape": {"dim": [{"size": "2"}, {"size": "2"}]}}}}}, {"name": "StatefulPartitionedCall/model_1/model/expanded_conv_5/depthwise/Conv/depthwise/ReadVariableOp", "op": "Const", "attr": {"dtype": {"type": "DT_FLOAT"}, "value": {"tensor": {"dtype": "DT_FLOAT", "tensorShape": {"dim": [{"size": "5"}, {"size": "5"}, {"size": "240"}, {"size": "1"}]}}}}}, {"name": "StatefulPartitionedCall/model_1/model/expanded_conv_5/depthwise/Conv/depthwise/BatchToSpaceND/block_shape", "op": "Const", "attr": {"dtype": {"type": "DT_INT32"}, "value": {"tensor": {"dtype": "DT_INT32", "tensorShape": {"dim": [{"size": "2"}]}}}}}, {"name": "StatefulPartitionedCall/model_1/model/expanded_conv_5/depthwise/Conv/depthwise/BatchToSpaceND/crops", "op": "Const", "attr": {"value": {"tensor": {"dtype": "DT_INT32", "tensorShape": {"dim": [{"size": "2"}, {"size": "2"}]}}}, "dtype": {"type": "DT_INT32"}}}, {"name": "StatefulPartitionedCall/model_1/model/expanded_conv_5/depthwise/BatchNorm/batchnorm/mul", "op": "Const", "attr": {"value": {"tensor": {"dtype": "DT_FLOAT", "tensorShape": {"dim": [{"size": "240"}]}}}, "dtype": {"type": "DT_FLOAT"}}}, {"name": "StatefulPartitionedCall/model_1/model/expanded_conv_5/depthwise/BatchNorm/batchnorm/sub", "op": "Const", "attr": {"value": {"tensor": {"dtype": "DT_FLOAT", "tensorShape": {"dim": [{"size": "240"}]}}}, "dtype": {"type": "DT_FLOAT"}}}, {"name": "StatefulPartitionedCall/model_1/model/expanded_conv_5/squeeze_excite/AvgPool/Mean/reduction_indices", "op": "Const", "attr": {"value": {"tensor": {"dtype": "DT_INT32", "tensorShape": {"dim": [{"size": "2"}]}}}, "dtype": {"type": "DT_INT32"}}}, {"name": "StatefulPartitionedCall/model_1/model/reshape_3/strided_slice/stack", "op": "Const", "attr": {"dtype": {"type": "DT_INT32"}, "value": {"tensor": {"dtype": "DT_INT32", "tensorShape": {"dim": [{"size": "1"}]}}}}}, {"name": "StatefulPartitionedCall/model_1/model/reshape_3/strided_slice/stack_1", "op": "Const", "attr": {"value": {"tensor": {"dtype": "DT_INT32", "tensorShape": {"dim": [{"size": "1"}]}}}, "dtype": {"type": "DT_INT32"}}}, {"name": "StatefulPartitionedCall/model_1/model/reshape_3/strided_slice/stack_2", "op": "Const", "attr": {"dtype": {"type": "DT_INT32"}, "value": {"tensor": {"dtype": "DT_INT32", "tensorShape": {"dim": [{"size": "1"}]}}}}}, {"name": "StatefulPartitionedCall/model_1/model/reshape_3/Reshape/shape/1", "op": "Const", "attr": {"value": {"tensor": {"dtype": "DT_INT32", "tensorShape": {}}}, "dtype": {"type": "DT_INT32"}}}, {"name": "StatefulPartitionedCall/model_1/model/reshape_3/Reshape/shape/2", "op": "Const", "attr": {"dtype": {"type": "DT_INT32"}, "value": {"tensor": {"dtype": "DT_INT32", "tensorShape": {}}}}}, {"name": "StatefulPartitionedCall/model_1/model/reshape_3/Reshape/shape/3", "op": "Const", "attr": {"value": {"tensor": {"dtype": "DT_INT32", "tensorShape": {}}}, "dtype": {"type": "DT_INT32"}}}, {"name": "StatefulPartitionedCall/model_1/model/expanded_conv_5/squeeze_excite/Conv/Conv2D/ReadVariableOp", "op": "Const", "attr": {"dtype": {"type": "DT_FLOAT"}, "value": {"tensor": {"dtype": "DT_FLOAT", "tensorShape": {"dim": [{"size": "1"}, {"size": "1"}, {"size": "240"}, {"size": "64"}]}}}}}, {"name": "StatefulPartitionedCall/model_1/model/expanded_conv_5/squeeze_excite/Conv/BiasAdd/ReadVariableOp", "op": "Const", "attr": {"value": {"tensor": {"dtype": "DT_FLOAT", "tensorShape": {"dim": [{"size": "64"}]}}}, "dtype": {"type": "DT_FLOAT"}}}, {"name": "StatefulPartitionedCall/model_1/model/expanded_conv_5/squeeze_excite/Conv_1/Conv2D/ReadVariableOp", "op": "Const", "attr": {"value": {"tensor": {"dtype": "DT_FLOAT", "tensorShape": {"dim": [{"size": "1"}, {"size": "1"}, {"size": "64"}, {"size": "240"}]}}}, "dtype": {"type": "DT_FLOAT"}}}, {"name": "StatefulPartitionedCall/model_1/model/expanded_conv_5/squeeze_excite/Conv_1/BiasAdd/ReadVariableOp", "op": "Const", "attr": {"dtype": {"type": "DT_FLOAT"}, "value": {"tensor": {"dtype": "DT_FLOAT", "tensorShape": {"dim": [{"size": "240"}]}}}}}, {"name": "StatefulPartitionedCall/model_1/model/activation_15/Const", "op": "Const", "attr": {"dtype": {"type": "DT_FLOAT"}, "value": {"tensor": {"dtype": "DT_FLOAT", "tensorShape": {}}}}}, {"name": "StatefulPartitionedCall/model_1/model/activation_15/Const_1", "op": "Const", "attr": {"dtype": {"type": "DT_FLOAT"}, "value": {"tensor": {"dtype": "DT_FLOAT", "tensorShape": {}}}}}, {"name": "StatefulPartitionedCall/model_1/model/activation_15/clip_by_value/Minimum/y", "op": "Const", "attr": {"dtype": {"type": "DT_FLOAT"}, "value": {"tensor": {"dtype": "DT_FLOAT", "tensorShape": {}}}}}, {"name": "StatefulPartitionedCall/model_1/model/activation_15/clip_by_value/y", "op": "Const", "attr": {"value": {"tensor": {"dtype": "DT_FLOAT", "tensorShape": {}}}, "dtype": {"type": "DT_FLOAT"}}}, {"name": "StatefulPartitionedCall/model_1/model/expanded_conv_5/project/Conv2D/merged_input", "op": "Const", "attr": {"value": {"tensor": {"dtype": "DT_FLOAT", "tensorShape": {"dim": [{"size": "1"}, {"size": "1"}, {"size": "240"}, {"size": "40"}]}}}, "dtype": {"type": "DT_FLOAT"}}}, {"name": "StatefulPartitionedCall/model_1/model/expanded_conv_5/project/BatchNorm/batchnorm/sub", "op": "Const", "attr": {"value": {"tensor": {"dtype": "DT_FLOAT", "tensorShape": {"dim": [{"size": "40"}]}}}, "dtype": {"type": "DT_FLOAT"}}}, {"name": "StatefulPartitionedCall/model_1/model/expanded_conv_6/expand/Conv2D/merged_input", "op": "Const", "attr": {"dtype": {"type": "DT_FLOAT"}, "value": {"tensor": {"dtype": "DT_FLOAT", "tensorShape": {"dim": [{"size": "1"}, {"size": "1"}, {"size": "40"}, {"size": "120"}]}}}}}, {"name": "StatefulPartitionedCall/model_1/model/expanded_conv_6/expand/BatchNorm/batchnorm/sub", "op": "Const", "attr": {"value": {"tensor": {"dtype": "DT_FLOAT", "tensorShape": {"dim": [{"size": "120"}]}}}, "dtype": {"type": "DT_FLOAT"}}}, {"name": "StatefulPartitionedCall/model_1/model/expanded_conv_6/depthwise/Conv/depthwise/SpaceToBatchND/block_shape", "op": "Const", "attr": {"value": {"tensor": {"dtype": "DT_INT32", "tensorShape": {"dim": [{"size": "2"}]}}}, "dtype": {"type": "DT_INT32"}}}, {"name": "StatefulPartitionedCall/model_1/model/expanded_conv_6/depthwise/Conv/depthwise/SpaceToBatchND/paddings", "op": "Const", "attr": {"value": {"tensor": {"dtype": "DT_INT32", "tensorShape": {"dim": [{"size": "2"}, {"size": "2"}]}}}, "dtype": {"type": "DT_INT32"}}}, {"name": "StatefulPartitionedCall/model_1/model/expanded_conv_6/depthwise/Conv/depthwise/ReadVariableOp", "op": "Const", "attr": {"dtype": {"type": "DT_FLOAT"}, "value": {"tensor": {"dtype": "DT_FLOAT", "tensorShape": {"dim": [{"size": "5"}, {"size": "5"}, {"size": "120"}, {"size": "1"}]}}}}}, {"name": "StatefulPartitionedCall/model_1/model/expanded_conv_6/depthwise/Conv/depthwise/BatchToSpaceND/block_shape", "op": "Const", "attr": {"dtype": {"type": "DT_INT32"}, "value": {"tensor": {"dtype": "DT_INT32", "tensorShape": {"dim": [{"size": "2"}]}}}}}, {"name": "StatefulPartitionedCall/model_1/model/expanded_conv_6/depthwise/Conv/depthwise/BatchToSpaceND/crops", "op": "Const", "attr": {"value": {"tensor": {"dtype": "DT_INT32", "tensorShape": {"dim": [{"size": "2"}, {"size": "2"}]}}}, "dtype": {"type": "DT_INT32"}}}, {"name": "StatefulPartitionedCall/model_1/model/expanded_conv_6/depthwise/BatchNorm/batchnorm/mul", "op": "Const", "attr": {"value": {"tensor": {"dtype": "DT_FLOAT", "tensorShape": {"dim": [{"size": "120"}]}}}, "dtype": {"type": "DT_FLOAT"}}}, {"name": "StatefulPartitionedCall/model_1/model/expanded_conv_6/depthwise/BatchNorm/batchnorm/sub", "op": "Const", "attr": {"value": {"tensor": {"dtype": "DT_FLOAT", "tensorShape": {"dim": [{"size": "120"}]}}}, "dtype": {"type": "DT_FLOAT"}}}, {"name": "StatefulPartitionedCall/model_1/model/expanded_conv_6/squeeze_excite/AvgPool/Mean/reduction_indices", "op": "Const", "attr": {"dtype": {"type": "DT_INT32"}, "value": {"tensor": {"dtype": "DT_INT32", "tensorShape": {"dim": [{"size": "2"}]}}}}}, {"name": "StatefulPartitionedCall/model_1/model/reshape_4/strided_slice/stack", "op": "Const", "attr": {"value": {"tensor": {"dtype": "DT_INT32", "tensorShape": {"dim": [{"size": "1"}]}}}, "dtype": {"type": "DT_INT32"}}}, {"name": "StatefulPartitionedCall/model_1/model/reshape_4/strided_slice/stack_1", "op": "Const", "attr": {"dtype": {"type": "DT_INT32"}, "value": {"tensor": {"dtype": "DT_INT32", "tensorShape": {"dim": [{"size": "1"}]}}}}}, {"name": "StatefulPartitionedCall/model_1/model/reshape_4/strided_slice/stack_2", "op": "Const", "attr": {"dtype": {"type": "DT_INT32"}, "value": {"tensor": {"dtype": "DT_INT32", "tensorShape": {"dim": [{"size": "1"}]}}}}}, {"name": "StatefulPartitionedCall/model_1/model/reshape_4/Reshape/shape/1", "op": "Const", "attr": {"dtype": {"type": "DT_INT32"}, "value": {"tensor": {"dtype": "DT_INT32", "tensorShape": {}}}}}, {"name": "StatefulPartitionedCall/model_1/model/reshape_4/Reshape/shape/2", "op": "Const", "attr": {"value": {"tensor": {"dtype": "DT_INT32", "tensorShape": {}}}, "dtype": {"type": "DT_INT32"}}}, {"name": "StatefulPartitionedCall/model_1/model/reshape_4/Reshape/shape/3", "op": "Const", "attr": {"value": {"tensor": {"dtype": "DT_INT32", "tensorShape": {}}}, "dtype": {"type": "DT_INT32"}}}, {"name": "StatefulPartitionedCall/model_1/model/expanded_conv_6/squeeze_excite/Conv/Conv2D/ReadVariableOp", "op": "Const", "attr": {"dtype": {"type": "DT_FLOAT"}, "value": {"tensor": {"dtype": "DT_FLOAT", "tensorShape": {"dim": [{"size": "1"}, {"size": "1"}, {"size": "120"}, {"size": "32"}]}}}}}, {"name": "StatefulPartitionedCall/model_1/model/expanded_conv_6/squeeze_excite/Conv/BiasAdd/ReadVariableOp", "op": "Const", "attr": {"value": {"tensor": {"dtype": "DT_FLOAT", "tensorShape": {"dim": [{"size": "32"}]}}}, "dtype": {"type": "DT_FLOAT"}}}, {"name": "StatefulPartitionedCall/model_1/model/expanded_conv_6/squeeze_excite/Conv_1/Conv2D/ReadVariableOp", "op": "Const", "attr": {"value": {"tensor": {"dtype": "DT_FLOAT", "tensorShape": {"dim": [{"size": "1"}, {"size": "1"}, {"size": "32"}, {"size": "120"}]}}}, "dtype": {"type": "DT_FLOAT"}}}, {"name": "StatefulPartitionedCall/model_1/model/expanded_conv_6/squeeze_excite/Conv_1/BiasAdd/ReadVariableOp", "op": "Const", "attr": {"value": {"tensor": {"dtype": "DT_FLOAT", "tensorShape": {"dim": [{"size": "120"}]}}}, "dtype": {"type": "DT_FLOAT"}}}, {"name": "StatefulPartitionedCall/model_1/model/activation_18/Const", "op": "Const", "attr": {"value": {"tensor": {"dtype": "DT_FLOAT", "tensorShape": {}}}, "dtype": {"type": "DT_FLOAT"}}}, {"name": "StatefulPartitionedCall/model_1/model/activation_18/Const_1", "op": "Const", "attr": {"value": {"tensor": {"dtype": "DT_FLOAT", "tensorShape": {}}}, "dtype": {"type": "DT_FLOAT"}}}, {"name": "StatefulPartitionedCall/model_1/model/activation_18/clip_by_value/Minimum/y", "op": "Const", "attr": {"value": {"tensor": {"dtype": "DT_FLOAT", "tensorShape": {}}}, "dtype": {"type": "DT_FLOAT"}}}, {"name": "StatefulPartitionedCall/model_1/model/activation_18/clip_by_value/y", "op": "Const", "attr": {"dtype": {"type": "DT_FLOAT"}, "value": {"tensor": {"dtype": "DT_FLOAT", "tensorShape": {}}}}}, {"name": "StatefulPartitionedCall/model_1/model/expanded_conv_6/project/Conv2D/merged_input", "op": "Const", "attr": {"dtype": {"type": "DT_FLOAT"}, "value": {"tensor": {"dtype": "DT_FLOAT", "tensorShape": {"dim": [{"size": "1"}, {"size": "1"}, {"size": "120"}, {"size": "48"}]}}}}}, {"name": "StatefulPartitionedCall/model_1/model/expanded_conv_6/project/BatchNorm/batchnorm/sub", "op": "Const", "attr": {"value": {"tensor": {"dtype": "DT_FLOAT", "tensorShape": {"dim": [{"size": "48"}]}}}, "dtype": {"type": "DT_FLOAT"}}}, {"name": "StatefulPartitionedCall/model_1/model/expanded_conv_7/expand/Conv2D/merged_input", "op": "Const", "attr": {"dtype": {"type": "DT_FLOAT"}, "value": {"tensor": {"dtype": "DT_FLOAT", "tensorShape": {"dim": [{"size": "1"}, {"size": "1"}, {"size": "48"}, {"size": "144"}]}}}}}, {"name": "StatefulPartitionedCall/model_1/model/expanded_conv_7/expand/BatchNorm/batchnorm/sub", "op": "Const", "attr": {"dtype": {"type": "DT_FLOAT"}, "value": {"tensor": {"dtype": "DT_FLOAT", "tensorShape": {"dim": [{"size": "144"}]}}}}}, {"name": "StatefulPartitionedCall/model_1/model/expanded_conv_7/depthwise/Conv/depthwise/SpaceToBatchND/block_shape", "op": "Const", "attr": {"dtype": {"type": "DT_INT32"}, "value": {"tensor": {"dtype": "DT_INT32", "tensorShape": {"dim": [{"size": "2"}]}}}}}, {"name": "StatefulPartitionedCall/model_1/model/expanded_conv_7/depthwise/Conv/depthwise/SpaceToBatchND/paddings", "op": "Const", "attr": {"value": {"tensor": {"dtype": "DT_INT32", "tensorShape": {"dim": [{"size": "2"}, {"size": "2"}]}}}, "dtype": {"type": "DT_INT32"}}}, {"name": "StatefulPartitionedCall/model_1/model/expanded_conv_7/depthwise/Conv/depthwise/ReadVariableOp", "op": "Const", "attr": {"value": {"tensor": {"dtype": "DT_FLOAT", "tensorShape": {"dim": [{"size": "5"}, {"size": "5"}, {"size": "144"}, {"size": "1"}]}}}, "dtype": {"type": "DT_FLOAT"}}}, {"name": "StatefulPartitionedCall/model_1/model/expanded_conv_7/depthwise/Conv/depthwise/BatchToSpaceND/block_shape", "op": "Const", "attr": {"value": {"tensor": {"dtype": "DT_INT32", "tensorShape": {"dim": [{"size": "2"}]}}}, "dtype": {"type": "DT_INT32"}}}, {"name": "StatefulPartitionedCall/model_1/model/expanded_conv_7/depthwise/Conv/depthwise/BatchToSpaceND/crops", "op": "Const", "attr": {"dtype": {"type": "DT_INT32"}, "value": {"tensor": {"dtype": "DT_INT32", "tensorShape": {"dim": [{"size": "2"}, {"size": "2"}]}}}}}, {"name": "StatefulPartitionedCall/model_1/model/expanded_conv_7/depthwise/BatchNorm/batchnorm/mul", "op": "Const", "attr": {"value": {"tensor": {"dtype": "DT_FLOAT", "tensorShape": {"dim": [{"size": "144"}]}}}, "dtype": {"type": "DT_FLOAT"}}}, {"name": "StatefulPartitionedCall/model_1/model/expanded_conv_7/depthwise/BatchNorm/batchnorm/sub", "op": "Const", "attr": {"dtype": {"type": "DT_FLOAT"}, "value": {"tensor": {"dtype": "DT_FLOAT", "tensorShape": {"dim": [{"size": "144"}]}}}}}, {"name": "StatefulPartitionedCall/model_1/model/expanded_conv_7/squeeze_excite/AvgPool/Mean/reduction_indices", "op": "Const", "attr": {"value": {"tensor": {"dtype": "DT_INT32", "tensorShape": {"dim": [{"size": "2"}]}}}, "dtype": {"type": "DT_INT32"}}}, {"name": "StatefulPartitionedCall/model_1/model/reshape_5/strided_slice/stack", "op": "Const", "attr": {"value": {"tensor": {"dtype": "DT_INT32", "tensorShape": {"dim": [{"size": "1"}]}}}, "dtype": {"type": "DT_INT32"}}}, {"name": "StatefulPartitionedCall/model_1/model/reshape_5/strided_slice/stack_1", "op": "Const", "attr": {"value": {"tensor": {"dtype": "DT_INT32", "tensorShape": {"dim": [{"size": "1"}]}}}, "dtype": {"type": "DT_INT32"}}}, {"name": "StatefulPartitionedCall/model_1/model/reshape_5/strided_slice/stack_2", "op": "Const", "attr": {"dtype": {"type": "DT_INT32"}, "value": {"tensor": {"dtype": "DT_INT32", "tensorShape": {"dim": [{"size": "1"}]}}}}}, {"name": "StatefulPartitionedCall/model_1/model/reshape_5/Reshape/shape/1", "op": "Const", "attr": {"value": {"tensor": {"dtype": "DT_INT32", "tensorShape": {}}}, "dtype": {"type": "DT_INT32"}}}, {"name": "StatefulPartitionedCall/model_1/model/reshape_5/Reshape/shape/2", "op": "Const", "attr": {"value": {"tensor": {"dtype": "DT_INT32", "tensorShape": {}}}, "dtype": {"type": "DT_INT32"}}}, {"name": "StatefulPartitionedCall/model_1/model/reshape_5/Reshape/shape/3", "op": "Const", "attr": {"value": {"tensor": {"dtype": "DT_INT32", "tensorShape": {}}}, "dtype": {"type": "DT_INT32"}}}, {"name": "StatefulPartitionedCall/model_1/model/expanded_conv_7/squeeze_excite/Conv/Conv2D/ReadVariableOp", "op": "Const", "attr": {"value": {"tensor": {"dtype": "DT_FLOAT", "tensorShape": {"dim": [{"size": "1"}, {"size": "1"}, {"size": "144"}, {"size": "40"}]}}}, "dtype": {"type": "DT_FLOAT"}}}, {"name": "StatefulPartitionedCall/model_1/model/expanded_conv_7/squeeze_excite/Conv/BiasAdd/ReadVariableOp", "op": "Const", "attr": {"dtype": {"type": "DT_FLOAT"}, "value": {"tensor": {"dtype": "DT_FLOAT", "tensorShape": {"dim": [{"size": "40"}]}}}}}, {"name": "StatefulPartitionedCall/model_1/model/expanded_conv_7/squeeze_excite/Conv_1/Conv2D/ReadVariableOp", "op": "Const", "attr": {"value": {"tensor": {"dtype": "DT_FLOAT", "tensorShape": {"dim": [{"size": "1"}, {"size": "1"}, {"size": "40"}, {"size": "144"}]}}}, "dtype": {"type": "DT_FLOAT"}}}, {"name": "StatefulPartitionedCall/model_1/model/expanded_conv_7/squeeze_excite/Conv_1/BiasAdd/ReadVariableOp", "op": "Const", "attr": {"value": {"tensor": {"dtype": "DT_FLOAT", "tensorShape": {"dim": [{"size": "144"}]}}}, "dtype": {"type": "DT_FLOAT"}}}, {"name": "StatefulPartitionedCall/model_1/model/activation_21/Const", "op": "Const", "attr": {"dtype": {"type": "DT_FLOAT"}, "value": {"tensor": {"dtype": "DT_FLOAT", "tensorShape": {}}}}}, {"name": "StatefulPartitionedCall/model_1/model/activation_21/Const_1", "op": "Const", "attr": {"dtype": {"type": "DT_FLOAT"}, "value": {"tensor": {"dtype": "DT_FLOAT", "tensorShape": {}}}}}, {"name": "StatefulPartitionedCall/model_1/model/activation_21/clip_by_value/Minimum/y", "op": "Const", "attr": {"value": {"tensor": {"dtype": "DT_FLOAT", "tensorShape": {}}}, "dtype": {"type": "DT_FLOAT"}}}, {"name": "StatefulPartitionedCall/model_1/model/activation_21/clip_by_value/y", "op": "Const", "attr": {"value": {"tensor": {"dtype": "DT_FLOAT", "tensorShape": {}}}, "dtype": {"type": "DT_FLOAT"}}}, {"name": "StatefulPartitionedCall/model_1/model/expanded_conv_7/project/Conv2D/merged_input", "op": "Const", "attr": {"dtype": {"type": "DT_FLOAT"}, "value": {"tensor": {"dtype": "DT_FLOAT", "tensorShape": {"dim": [{"size": "1"}, {"size": "1"}, {"size": "144"}, {"size": "48"}]}}}}}, {"name": "StatefulPartitionedCall/model_1/model/expanded_conv_7/project/BatchNorm/batchnorm/sub", "op": "Const", "attr": {"dtype": {"type": "DT_FLOAT"}, "value": {"tensor": {"dtype": "DT_FLOAT", "tensorShape": {"dim": [{"size": "48"}]}}}}}, {"name": "StatefulPartitionedCall/model_1/model/expanded_conv_8/expand/Conv2D/merged_input", "op": "Const", "attr": {"dtype": {"type": "DT_FLOAT"}, "value": {"tensor": {"dtype": "DT_FLOAT", "tensorShape": {"dim": [{"size": "1"}, {"size": "1"}, {"size": "48"}, {"size": "288"}]}}}}}, {"name": "StatefulPartitionedCall/model_1/model/expanded_conv_8/expand/BatchNorm/batchnorm/sub", "op": "Const", "attr": {"value": {"tensor": {"dtype": "DT_FLOAT", "tensorShape": {"dim": [{"size": "288"}]}}}, "dtype": {"type": "DT_FLOAT"}}}, {"name": "StatefulPartitionedCall/model_1/model/expanded_conv_8/depthwise/Conv/depthwise/SpaceToBatchND/block_shape", "op": "Const", "attr": {"dtype": {"type": "DT_INT32"}, "value": {"tensor": {"dtype": "DT_INT32", "tensorShape": {"dim": [{"size": "2"}]}}}}}, {"name": "StatefulPartitionedCall/model_1/model/expanded_conv_8/depthwise/Conv/depthwise/SpaceToBatchND/paddings", "op": "Const", "attr": {"dtype": {"type": "DT_INT32"}, "value": {"tensor": {"dtype": "DT_INT32", "tensorShape": {"dim": [{"size": "2"}, {"size": "2"}]}}}}}, {"name": "StatefulPartitionedCall/model_1/model/expanded_conv_8/depthwise/Conv/depthwise/ReadVariableOp", "op": "Const", "attr": {"dtype": {"type": "DT_FLOAT"}, "value": {"tensor": {"dtype": "DT_FLOAT", "tensorShape": {"dim": [{"size": "5"}, {"size": "5"}, {"size": "288"}, {"size": "1"}]}}}}}, {"name": "StatefulPartitionedCall/model_1/model/expanded_conv_8/depthwise/Conv/depthwise/BatchToSpaceND/block_shape", "op": "Const", "attr": {"dtype": {"type": "DT_INT32"}, "value": {"tensor": {"dtype": "DT_INT32", "tensorShape": {"dim": [{"size": "2"}]}}}}}, {"name": "StatefulPartitionedCall/model_1/model/expanded_conv_8/depthwise/Conv/depthwise/BatchToSpaceND/crops", "op": "Const", "attr": {"value": {"tensor": {"dtype": "DT_INT32", "tensorShape": {"dim": [{"size": "2"}, {"size": "2"}]}}}, "dtype": {"type": "DT_INT32"}}}, {"name": "StatefulPartitionedCall/model_1/model/expanded_conv_8/depthwise/BatchNorm/batchnorm/mul", "op": "Const", "attr": {"value": {"tensor": {"dtype": "DT_FLOAT", "tensorShape": {"dim": [{"size": "288"}]}}}, "dtype": {"type": "DT_FLOAT"}}}, {"name": "StatefulPartitionedCall/model_1/model/expanded_conv_8/depthwise/BatchNorm/batchnorm/sub", "op": "Const", "attr": {"value": {"tensor": {"dtype": "DT_FLOAT", "tensorShape": {"dim": [{"size": "288"}]}}}, "dtype": {"type": "DT_FLOAT"}}}, {"name": "StatefulPartitionedCall/model_1/model/expanded_conv_8/squeeze_excite/AvgPool/Mean/reduction_indices", "op": "Const", "attr": {"dtype": {"type": "DT_INT32"}, "value": {"tensor": {"dtype": "DT_INT32", "tensorShape": {"dim": [{"size": "2"}]}}}}}, {"name": "StatefulPartitionedCall/model_1/model/reshape_6/strided_slice/stack", "op": "Const", "attr": {"dtype": {"type": "DT_INT32"}, "value": {"tensor": {"dtype": "DT_INT32", "tensorShape": {"dim": [{"size": "1"}]}}}}}, {"name": "StatefulPartitionedCall/model_1/model/reshape_6/strided_slice/stack_1", "op": "Const", "attr": {"value": {"tensor": {"dtype": "DT_INT32", "tensorShape": {"dim": [{"size": "1"}]}}}, "dtype": {"type": "DT_INT32"}}}, {"name": "StatefulPartitionedCall/model_1/model/reshape_6/strided_slice/stack_2", "op": "Const", "attr": {"value": {"tensor": {"dtype": "DT_INT32", "tensorShape": {"dim": [{"size": "1"}]}}}, "dtype": {"type": "DT_INT32"}}}, {"name": "StatefulPartitionedCall/model_1/model/reshape_6/Reshape/shape/1", "op": "Const", "attr": {"value": {"tensor": {"dtype": "DT_INT32", "tensorShape": {}}}, "dtype": {"type": "DT_INT32"}}}, {"name": "StatefulPartitionedCall/model_1/model/reshape_6/Reshape/shape/2", "op": "Const", "attr": {"dtype": {"type": "DT_INT32"}, "value": {"tensor": {"dtype": "DT_INT32", "tensorShape": {}}}}}, {"name": "StatefulPartitionedCall/model_1/model/reshape_6/Reshape/shape/3", "op": "Const", "attr": {"value": {"tensor": {"dtype": "DT_INT32", "tensorShape": {}}}, "dtype": {"type": "DT_INT32"}}}, {"name": "StatefulPartitionedCall/model_1/model/expanded_conv_8/squeeze_excite/Conv/Conv2D/ReadVariableOp", "op": "Const", "attr": {"dtype": {"type": "DT_FLOAT"}, "value": {"tensor": {"dtype": "DT_FLOAT", "tensorShape": {"dim": [{"size": "1"}, {"size": "1"}, {"size": "288"}, {"size": "72"}]}}}}}, {"name": "StatefulPartitionedCall/model_1/model/expanded_conv_8/squeeze_excite/Conv/BiasAdd/ReadVariableOp", "op": "Const", "attr": {"dtype": {"type": "DT_FLOAT"}, "value": {"tensor": {"dtype": "DT_FLOAT", "tensorShape": {"dim": [{"size": "72"}]}}}}}, {"name": "StatefulPartitionedCall/model_1/model/expanded_conv_8/squeeze_excite/Conv_1/Conv2D/ReadVariableOp", "op": "Const", "attr": {"value": {"tensor": {"dtype": "DT_FLOAT", "tensorShape": {"dim": [{"size": "1"}, {"size": "1"}, {"size": "72"}, {"size": "288"}]}}}, "dtype": {"type": "DT_FLOAT"}}}, {"name": "StatefulPartitionedCall/model_1/model/expanded_conv_8/squeeze_excite/Conv_1/BiasAdd/ReadVariableOp", "op": "Const", "attr": {"dtype": {"type": "DT_FLOAT"}, "value": {"tensor": {"dtype": "DT_FLOAT", "tensorShape": {"dim": [{"size": "288"}]}}}}}, {"name": "StatefulPartitionedCall/model_1/model/activation_24/Const", "op": "Const", "attr": {"value": {"tensor": {"dtype": "DT_FLOAT", "tensorShape": {}}}, "dtype": {"type": "DT_FLOAT"}}}, {"name": "StatefulPartitionedCall/model_1/model/activation_24/Const_1", "op": "Const", "attr": {"value": {"tensor": {"dtype": "DT_FLOAT", "tensorShape": {}}}, "dtype": {"type": "DT_FLOAT"}}}, {"name": "StatefulPartitionedCall/model_1/model/activation_24/clip_by_value/Minimum/y", "op": "Const", "attr": {"dtype": {"type": "DT_FLOAT"}, "value": {"tensor": {"dtype": "DT_FLOAT", "tensorShape": {}}}}}, {"name": "StatefulPartitionedCall/model_1/model/activation_24/clip_by_value/y", "op": "Const", "attr": {"value": {"tensor": {"dtype": "DT_FLOAT", "tensorShape": {}}}, "dtype": {"type": "DT_FLOAT"}}}, {"name": "StatefulPartitionedCall/model_1/model/expanded_conv_8/project/Conv2D/merged_input", "op": "Const", "attr": {"dtype": {"type": "DT_FLOAT"}, "value": {"tensor": {"dtype": "DT_FLOAT", "tensorShape": {"dim": [{"size": "1"}, {"size": "1"}, {"size": "288"}, {"size": "96"}]}}}}}, {"name": "StatefulPartitionedCall/model_1/model/expanded_conv_8/project/BatchNorm/batchnorm/sub", "op": "Const", "attr": {"dtype": {"type": "DT_FLOAT"}, "value": {"tensor": {"dtype": "DT_FLOAT", "tensorShape": {"dim": [{"size": "96"}]}}}}}, {"name": "StatefulPartitionedCall/model_1/model/expanded_conv_9/expand/Conv2D/merged_input", "op": "Const", "attr": {"dtype": {"type": "DT_FLOAT"}, "value": {"tensor": {"dtype": "DT_FLOAT", "tensorShape": {"dim": [{"size": "1"}, {"size": "1"}, {"size": "96"}, {"size": "576"}]}}}}}, {"name": "StatefulPartitionedCall/model_1/model/expanded_conv_9/expand/BatchNorm/batchnorm/sub", "op": "Const", "attr": {"value": {"tensor": {"dtype": "DT_FLOAT", "tensorShape": {"dim": [{"size": "576"}]}}}, "dtype": {"type": "DT_FLOAT"}}}, {"name": "StatefulPartitionedCall/model_1/model/expanded_conv_9/depthwise/Conv/depthwise/SpaceToBatchND/block_shape", "op": "Const", "attr": {"dtype": {"type": "DT_INT32"}, "value": {"tensor": {"dtype": "DT_INT32", "tensorShape": {"dim": [{"size": "2"}]}}}}}, {"name": "StatefulPartitionedCall/model_1/model/expanded_conv_9/depthwise/Conv/depthwise/SpaceToBatchND/paddings", "op": "Const", "attr": {"value": {"tensor": {"dtype": "DT_INT32", "tensorShape": {"dim": [{"size": "2"}, {"size": "2"}]}}}, "dtype": {"type": "DT_INT32"}}}, {"name": "StatefulPartitionedCall/model_1/model/expanded_conv_9/depthwise/Conv/depthwise/ReadVariableOp", "op": "Const", "attr": {"dtype": {"type": "DT_FLOAT"}, "value": {"tensor": {"dtype": "DT_FLOAT", "tensorShape": {"dim": [{"size": "5"}, {"size": "5"}, {"size": "576"}, {"size": "1"}]}}}}}, {"name": "StatefulPartitionedCall/model_1/model/expanded_conv_9/depthwise/Conv/depthwise/BatchToSpaceND/block_shape", "op": "Const", "attr": {"value": {"tensor": {"dtype": "DT_INT32", "tensorShape": {"dim": [{"size": "2"}]}}}, "dtype": {"type": "DT_INT32"}}}, {"name": "StatefulPartitionedCall/model_1/model/expanded_conv_9/depthwise/Conv/depthwise/BatchToSpaceND/crops", "op": "Const", "attr": {"value": {"tensor": {"dtype": "DT_INT32", "tensorShape": {"dim": [{"size": "2"}, {"size": "2"}]}}}, "dtype": {"type": "DT_INT32"}}}, {"name": "StatefulPartitionedCall/model_1/model/expanded_conv_9/depthwise/BatchNorm/batchnorm/mul", "op": "Const", "attr": {"dtype": {"type": "DT_FLOAT"}, "value": {"tensor": {"dtype": "DT_FLOAT", "tensorShape": {"dim": [{"size": "576"}]}}}}}, {"name": "StatefulPartitionedCall/model_1/model/expanded_conv_9/depthwise/BatchNorm/batchnorm/sub", "op": "Const", "attr": {"value": {"tensor": {"dtype": "DT_FLOAT", "tensorShape": {"dim": [{"size": "576"}]}}}, "dtype": {"type": "DT_FLOAT"}}}, {"name": "StatefulPartitionedCall/model_1/model/expanded_conv_9/squeeze_excite/AvgPool/Mean/reduction_indices", "op": "Const", "attr": {"dtype": {"type": "DT_INT32"}, "value": {"tensor": {"dtype": "DT_INT32", "tensorShape": {"dim": [{"size": "2"}]}}}}}, {"name": "StatefulPartitionedCall/model_1/model/reshape_7/strided_slice/stack", "op": "Const", "attr": {"dtype": {"type": "DT_INT32"}, "value": {"tensor": {"dtype": "DT_INT32", "tensorShape": {"dim": [{"size": "1"}]}}}}}, {"name": "StatefulPartitionedCall/model_1/model/reshape_7/strided_slice/stack_1", "op": "Const", "attr": {"dtype": {"type": "DT_INT32"}, "value": {"tensor": {"dtype": "DT_INT32", "tensorShape": {"dim": [{"size": "1"}]}}}}}, {"name": "StatefulPartitionedCall/model_1/model/reshape_7/strided_slice/stack_2", "op": "Const", "attr": {"dtype": {"type": "DT_INT32"}, "value": {"tensor": {"dtype": "DT_INT32", "tensorShape": {"dim": [{"size": "1"}]}}}}}, {"name": "StatefulPartitionedCall/model_1/model/reshape_7/Reshape/shape/1", "op": "Const", "attr": {"value": {"tensor": {"dtype": "DT_INT32", "tensorShape": {}}}, "dtype": {"type": "DT_INT32"}}}, {"name": "StatefulPartitionedCall/model_1/model/reshape_7/Reshape/shape/2", "op": "Const", "attr": {"value": {"tensor": {"dtype": "DT_INT32", "tensorShape": {}}}, "dtype": {"type": "DT_INT32"}}}, {"name": "StatefulPartitionedCall/model_1/model/reshape_7/Reshape/shape/3", "op": "Const", "attr": {"value": {"tensor": {"dtype": "DT_INT32", "tensorShape": {}}}, "dtype": {"type": "DT_INT32"}}}, {"name": "StatefulPartitionedCall/model_1/model/expanded_conv_9/squeeze_excite/Conv/Conv2D/ReadVariableOp", "op": "Const", "attr": {"value": {"tensor": {"dtype": "DT_FLOAT", "tensorShape": {"dim": [{"size": "1"}, {"size": "1"}, {"size": "576"}, {"size": "144"}]}}}, "dtype": {"type": "DT_FLOAT"}}}, {"name": "StatefulPartitionedCall/model_1/model/expanded_conv_9/squeeze_excite/Conv/BiasAdd/ReadVariableOp", "op": "Const", "attr": {"value": {"tensor": {"dtype": "DT_FLOAT", "tensorShape": {"dim": [{"size": "144"}]}}}, "dtype": {"type": "DT_FLOAT"}}}, {"name": "StatefulPartitionedCall/model_1/model/expanded_conv_9/squeeze_excite/Conv_1/Conv2D/ReadVariableOp", "op": "Const", "attr": {"dtype": {"type": "DT_FLOAT"}, "value": {"tensor": {"dtype": "DT_FLOAT", "tensorShape": {"dim": [{"size": "1"}, {"size": "1"}, {"size": "144"}, {"size": "576"}]}}}}}, {"name": "StatefulPartitionedCall/model_1/model/expanded_conv_9/squeeze_excite/Conv_1/BiasAdd/ReadVariableOp", "op": "Const", "attr": {"dtype": {"type": "DT_FLOAT"}, "value": {"tensor": {"dtype": "DT_FLOAT", "tensorShape": {"dim": [{"size": "576"}]}}}}}, {"name": "StatefulPartitionedCall/model_1/model/activation_27/Const", "op": "Const", "attr": {"value": {"tensor": {"dtype": "DT_FLOAT", "tensorShape": {}}}, "dtype": {"type": "DT_FLOAT"}}}, {"name": "StatefulPartitionedCall/model_1/model/activation_27/Const_1", "op": "Const", "attr": {"value": {"tensor": {"dtype": "DT_FLOAT", "tensorShape": {}}}, "dtype": {"type": "DT_FLOAT"}}}, {"name": "StatefulPartitionedCall/model_1/model/activation_27/clip_by_value/Minimum/y", "op": "Const", "attr": {"dtype": {"type": "DT_FLOAT"}, "value": {"tensor": {"dtype": "DT_FLOAT", "tensorShape": {}}}}}, {"name": "StatefulPartitionedCall/model_1/model/activation_27/clip_by_value/y", "op": "Const", "attr": {"dtype": {"type": "DT_FLOAT"}, "value": {"tensor": {"dtype": "DT_FLOAT", "tensorShape": {}}}}}, {"name": "StatefulPartitionedCall/model_1/model/expanded_conv_9/project/Conv2D/merged_input", "op": "Const", "attr": {"value": {"tensor": {"dtype": "DT_FLOAT", "tensorShape": {"dim": [{"size": "1"}, {"size": "1"}, {"size": "576"}, {"size": "96"}]}}}, "dtype": {"type": "DT_FLOAT"}}}, {"name": "StatefulPartitionedCall/model_1/model/expanded_conv_9/project/BatchNorm/batchnorm/sub", "op": "Const", "attr": {"dtype": {"type": "DT_FLOAT"}, "value": {"tensor": {"dtype": "DT_FLOAT", "tensorShape": {"dim": [{"size": "96"}]}}}}}, {"name": "StatefulPartitionedCall/model_1/model/expanded_conv_10/expand/Conv2D/merged_input", "op": "Const", "attr": {"dtype": {"type": "DT_FLOAT"}, "value": {"tensor": {"dtype": "DT_FLOAT", "tensorShape": {"dim": [{"size": "1"}, {"size": "1"}, {"size": "96"}, {"size": "576"}]}}}}}, {"name": "StatefulPartitionedCall/model_1/model/expanded_conv_10/expand/BatchNorm/batchnorm/sub", "op": "Const", "attr": {"dtype": {"type": "DT_FLOAT"}, "value": {"tensor": {"dtype": "DT_FLOAT", "tensorShape": {"dim": [{"size": "576"}]}}}}}, {"name": "StatefulPartitionedCall/model_1/model/expanded_conv_10/depthwise/Conv/depthwise/SpaceToBatchND/block_shape", "op": "Const", "attr": {"value": {"tensor": {"dtype": "DT_INT32", "tensorShape": {"dim": [{"size": "2"}]}}}, "dtype": {"type": "DT_INT32"}}}, {"name": "StatefulPartitionedCall/model_1/model/expanded_conv_10/depthwise/Conv/depthwise/SpaceToBatchND/paddings", "op": "Const", "attr": {"value": {"tensor": {"dtype": "DT_INT32", "tensorShape": {"dim": [{"size": "2"}, {"size": "2"}]}}}, "dtype": {"type": "DT_INT32"}}}, {"name": "StatefulPartitionedCall/model_1/model/expanded_conv_10/depthwise/Conv/depthwise/ReadVariableOp", "op": "Const", "attr": {"dtype": {"type": "DT_FLOAT"}, "value": {"tensor": {"dtype": "DT_FLOAT", "tensorShape": {"dim": [{"size": "5"}, {"size": "5"}, {"size": "576"}, {"size": "1"}]}}}}}, {"name": "StatefulPartitionedCall/model_1/model/expanded_conv_10/depthwise/Conv/depthwise/BatchToSpaceND/block_shape", "op": "Const", "attr": {"value": {"tensor": {"dtype": "DT_INT32", "tensorShape": {"dim": [{"size": "2"}]}}}, "dtype": {"type": "DT_INT32"}}}, {"name": "StatefulPartitionedCall/model_1/model/expanded_conv_10/depthwise/Conv/depthwise/BatchToSpaceND/crops", "op": "Const", "attr": {"value": {"tensor": {"dtype": "DT_INT32", "tensorShape": {"dim": [{"size": "2"}, {"size": "2"}]}}}, "dtype": {"type": "DT_INT32"}}}, {"name": "StatefulPartitionedCall/model_1/model/expanded_conv_10/depthwise/BatchNorm/batchnorm/mul", "op": "Const", "attr": {"value": {"tensor": {"dtype": "DT_FLOAT", "tensorShape": {"dim": [{"size": "576"}]}}}, "dtype": {"type": "DT_FLOAT"}}}, {"name": "StatefulPartitionedCall/model_1/model/expanded_conv_10/depthwise/BatchNorm/batchnorm/sub", "op": "Const", "attr": {"value": {"tensor": {"dtype": "DT_FLOAT", "tensorShape": {"dim": [{"size": "576"}]}}}, "dtype": {"type": "DT_FLOAT"}}}, {"name": "StatefulPartitionedCall/model_1/model/expanded_conv_10/squeeze_excite/AvgPool/Mean/reduction_indices", "op": "Const", "attr": {"value": {"tensor": {"dtype": "DT_INT32", "tensorShape": {"dim": [{"size": "2"}]}}}, "dtype": {"type": "DT_INT32"}}}, {"name": "StatefulPartitionedCall/model_1/model/reshape_8/strided_slice/stack", "op": "Const", "attr": {"value": {"tensor": {"dtype": "DT_INT32", "tensorShape": {"dim": [{"size": "1"}]}}}, "dtype": {"type": "DT_INT32"}}}, {"name": "StatefulPartitionedCall/model_1/model/reshape_8/strided_slice/stack_1", "op": "Const", "attr": {"value": {"tensor": {"dtype": "DT_INT32", "tensorShape": {"dim": [{"size": "1"}]}}}, "dtype": {"type": "DT_INT32"}}}, {"name": "StatefulPartitionedCall/model_1/model/reshape_8/strided_slice/stack_2", "op": "Const", "attr": {"dtype": {"type": "DT_INT32"}, "value": {"tensor": {"dtype": "DT_INT32", "tensorShape": {"dim": [{"size": "1"}]}}}}}, {"name": "StatefulPartitionedCall/model_1/model/reshape_8/Reshape/shape/1", "op": "Const", "attr": {"dtype": {"type": "DT_INT32"}, "value": {"tensor": {"dtype": "DT_INT32", "tensorShape": {}}}}}, {"name": "StatefulPartitionedCall/model_1/model/reshape_8/Reshape/shape/2", "op": "Const", "attr": {"dtype": {"type": "DT_INT32"}, "value": {"tensor": {"dtype": "DT_INT32", "tensorShape": {}}}}}, {"name": "StatefulPartitionedCall/model_1/model/reshape_8/Reshape/shape/3", "op": "Const", "attr": {"value": {"tensor": {"dtype": "DT_INT32", "tensorShape": {}}}, "dtype": {"type": "DT_INT32"}}}, {"name": "StatefulPartitionedCall/model_1/model/expanded_conv_10/squeeze_excite/Conv/Conv2D/ReadVariableOp", "op": "Const", "attr": {"dtype": {"type": "DT_FLOAT"}, "value": {"tensor": {"dtype": "DT_FLOAT", "tensorShape": {"dim": [{"size": "1"}, {"size": "1"}, {"size": "576"}, {"size": "144"}]}}}}}, {"name": "StatefulPartitionedCall/model_1/model/expanded_conv_10/squeeze_excite/Conv/BiasAdd/ReadVariableOp", "op": "Const", "attr": {"dtype": {"type": "DT_FLOAT"}, "value": {"tensor": {"dtype": "DT_FLOAT", "tensorShape": {"dim": [{"size": "144"}]}}}}}, {"name": "StatefulPartitionedCall/model_1/model/expanded_conv_10/squeeze_excite/Conv_1/Conv2D/ReadVariableOp", "op": "Const", "attr": {"dtype": {"type": "DT_FLOAT"}, "value": {"tensor": {"dtype": "DT_FLOAT", "tensorShape": {"dim": [{"size": "1"}, {"size": "1"}, {"size": "144"}, {"size": "576"}]}}}}}, {"name": "StatefulPartitionedCall/model_1/model/expanded_conv_10/squeeze_excite/Conv_1/BiasAdd/ReadVariableOp", "op": "Const", "attr": {"value": {"tensor": {"dtype": "DT_FLOAT", "tensorShape": {"dim": [{"size": "576"}]}}}, "dtype": {"type": "DT_FLOAT"}}}, {"name": "StatefulPartitionedCall/model_1/model/activation_30/Const", "op": "Const", "attr": {"value": {"tensor": {"dtype": "DT_FLOAT", "tensorShape": {}}}, "dtype": {"type": "DT_FLOAT"}}}, {"name": "StatefulPartitionedCall/model_1/model/activation_30/Const_1", "op": "Const", "attr": {"dtype": {"type": "DT_FLOAT"}, "value": {"tensor": {"dtype": "DT_FLOAT", "tensorShape": {}}}}}, {"name": "StatefulPartitionedCall/model_1/model/activation_30/clip_by_value/Minimum/y", "op": "Const", "attr": {"value": {"tensor": {"dtype": "DT_FLOAT", "tensorShape": {}}}, "dtype": {"type": "DT_FLOAT"}}}, {"name": "StatefulPartitionedCall/model_1/model/activation_30/clip_by_value/y", "op": "Const", "attr": {"dtype": {"type": "DT_FLOAT"}, "value": {"tensor": {"dtype": "DT_FLOAT", "tensorShape": {}}}}}, {"name": "StatefulPartitionedCall/model_1/model/expanded_conv_10/project/Conv2D/merged_input", "op": "Const", "attr": {"dtype": {"type": "DT_FLOAT"}, "value": {"tensor": {"dtype": "DT_FLOAT", "tensorShape": {"dim": [{"size": "1"}, {"size": "1"}, {"size": "576"}, {"size": "96"}]}}}}}, {"name": "StatefulPartitionedCall/model_1/model/expanded_conv_10/project/BatchNorm/batchnorm/sub", "op": "Const", "attr": {"value": {"tensor": {"dtype": "DT_FLOAT", "tensorShape": {"dim": [{"size": "96"}]}}}, "dtype": {"type": "DT_FLOAT"}}}, {"name": "StatefulPartitionedCall/model_1/model/image_pooling/Conv2D/ReadVariableOp", "op": "Const", "attr": {"value": {"tensor": {"dtype": "DT_FLOAT", "tensorShape": {"dim": [{"size": "1"}, {"size": "1"}, {"size": "96"}, {"size": "256"}]}}}, "dtype": {"type": "DT_FLOAT"}}}, {"name": "StatefulPartitionedCall/model_1/model/flatten/Const", "op": "Const", "attr": {"value": {"tensor": {"dtype": "DT_INT32", "tensorShape": {"dim": [{"size": "2"}]}}}, "dtype": {"type": "DT_INT32"}}}, {"name": "StatefulPartitionedCall/model_1/model/tags/MatMul/ReadVariableOp", "op": "Const", "attr": {"dtype": {"type": "DT_FLOAT"}, "value": {"tensor": {"dtype": "DT_FLOAT", "tensorShape": {"dim": [{"size": "256"}, {"size": "2"}]}}}}}, {"name": "StatefulPartitionedCall/model_1/model/tags/BiasAdd/ReadVariableOp", "op": "Const", "attr": {"dtype": {"type": "DT_FLOAT"}, "value": {"tensor": {"dtype": "DT_FLOAT", "tensorShape": {"dim": [{"size": "2"}]}}}}}, {"name": "input_1", "op": "Placeholder", "attr": {"dtype": {"type": "DT_FLOAT"}, "shape": {"shape": {"dim": [{"size": "-1"}, {"size": "128"}, {"size": "128"}, {"size": "1"}]}}}}, {"name": "StatefulPartitionedCall/model_1/gray2rgb/Tile", "op": "Tile", "input": ["input_1", "StatefulPartitionedCall/model_1/gray2rgb/Tile/multiples"], "attr": {"Tmultiples": {"type": "DT_INT32"}, "T": {"type": "DT_FLOAT"}}}, {"name": "StatefulPartitionedCall/model_1/model/input_normalize/truediv", "op": "Mul", "input": ["StatefulPartitionedCall/model_1/gray2rgb/Tile", "ConstantFolding/StatefulPartitionedCall/model_1/model/input_normalize/truediv_recip"], "attr": {"T": {"type": "DT_FLOAT"}}}, {"name": "StatefulPartitionedCall/model_1/model/input_normalize/sub", "op": "Sub", "input": ["StatefulPartitionedCall/model_1/model/input_normalize/truediv", "StatefulPartitionedCall/model_1/model/input_normalize/sub/y"], "attr": {"T": {"type": "DT_FLOAT"}}}, {"name": "StatefulPartitionedCall/model_1/model/Conv_pad/Pad", "op": "Pad", "input": ["StatefulPartitionedCall/model_1/model/input_normalize/sub", "StatefulPartitionedCall/model_1/model/Conv_pad/Pad/paddings"], "attr": {"T": {"type": "DT_FLOAT"}, "Tpaddings": {"type": "DT_INT32"}}}, {"name": "StatefulPartitionedCall/model_1/model/Conv/BatchNorm/batchnorm/mul_1", "op": "Conv2D", "input": ["StatefulPartitionedCall/model_1/model/Conv_pad/Pad", "StatefulPartitionedCall/model_1/model/Conv/Conv2D/merged_input"], "device": "/device:CPU:0", "attr": {"explicit_paddings": {"list": {}}, "use_cudnn_on_gpu": {"b": true}, "data_format": {"s": "TkhXQw=="}, "dilations": {"list": {"i": ["1", "1", "1", "1"]}}, "strides": {"list": {"i": ["1", "2", "2", "1"]}}, "T": {"type": "DT_FLOAT"}, "padding": {"s": "VkFMSUQ="}}}, {"name": "StatefulPartitionedCall/model_1/model/Conv/BatchNorm/batchnorm/add_1", "op": "AddV2", "input": ["StatefulPartitionedCall/model_1/model/Conv/BatchNorm/batchnorm/mul_1", "StatefulPartitionedCall/model_1/model/Conv/BatchNorm/batchnorm/sub"], "attr": {"T": {"type": "DT_FLOAT"}}}, {"name": "StatefulPartitionedCall/model_1/model/activation/activation/add", "op": "AddV2", "input": ["StatefulPartitionedCall/model_1/model/Conv/BatchNorm/batchnorm/add_1", "StatefulPartitionedCall/model_1/model/activation/activation/add/y"], "attr": {"T": {"type": "DT_FLOAT"}}}, {"name": "StatefulPartitionedCall/model_1/model/activation/activation/re_lu/Relu6", "op": "Relu6", "input": ["StatefulPartitionedCall/model_1/model/activation/activation/add"], "attr": {"T": {"type": "DT_FLOAT"}}}, {"name": "StatefulPartitionedCall/model_1/model/activation/activation/mul", "op": "Mul", "input": ["StatefulPartitionedCall/model_1/model/activation/activation/mul/y", "StatefulPartitionedCall/model_1/model/activation/activation/re_lu/Relu6"], "attr": {"_grappler_ArithmeticOptimizer_MinimizeBroadcasts": {"b": true}, "T": {"type": "DT_FLOAT"}}}, {"name": "StatefulPartitionedCall/model_1/model/activation/multiply/mul", "op": "Mul", "input": ["StatefulPartitionedCall/model_1/model/activation/activation/mul", "StatefulPartitionedCall/model_1/model/Conv/BatchNorm/batchnorm/add_1"], "attr": {"_grappler_ArithmeticOptimizer_MinimizeBroadcasts": {"b": true}, "T": {"type": "DT_FLOAT"}}}, {"name": "StatefulPartitionedCall/model_1/model/expanded_conv/depthwise/Conv/depthwise", "op": "DepthwiseConv2dNative", "input": ["StatefulPartitionedCall/model_1/model/activation/multiply/mul", "StatefulPartitionedCall/model_1/model/expanded_conv/depthwise/Conv/depthwise/ReadVariableOp"], "attr": {"explicit_paddings": {"list": {}}, "T": {"type": "DT_FLOAT"}, "dilations": {"list": {"i": ["1", "1", "1", "1"]}}, "strides": {"list": {"i": ["1", "2", "2", "1"]}}, "data_format": {"s": "TkhXQw=="}, "padding": {"s": "U0FNRQ=="}}}, {"name": "StatefulPartitionedCall/model_1/model/expanded_conv/depthwise/BatchNorm/batchnorm/mul_1", "op": "Mul", "input": ["StatefulPartitionedCall/model_1/model/expanded_conv/depthwise/Conv/depthwise", "StatefulPartitionedCall/model_1/model/expanded_conv/depthwise/BatchNorm/batchnorm/mul"], "attr": {"T": {"type": "DT_FLOAT"}}}, {"name": "StatefulPartitionedCall/model_1/model/expanded_conv/depthwise/BatchNorm/batchnorm/add_1", "op": "AddV2", "input": ["StatefulPartitionedCall/model_1/model/expanded_conv/depthwise/BatchNorm/batchnorm/mul_1", "StatefulPartitionedCall/model_1/model/expanded_conv/depthwise/BatchNorm/batchnorm/sub"], "attr": {"T": {"type": "DT_FLOAT"}}}, {"name": "StatefulPartitionedCall/model_1/model/activation_1/Relu", "op": "Relu", "input": ["StatefulPartitionedCall/model_1/model/expanded_conv/depthwise/BatchNorm/batchnorm/add_1"], "attr": {"T": {"type": "DT_FLOAT"}}}, {"name": "StatefulPartitionedCall/model_1/model/expanded_conv/squeeze_excite/AvgPool/Mean", "op": "Mean", "input": ["StatefulPartitionedCall/model_1/model/activation_1/Relu", "StatefulPartitionedCall/model_1/model/expanded_conv/squeeze_excite/AvgPool/Mean/reduction_indices"], "attr": {"Tidx": {"type": "DT_INT32"}, "keep_dims": {"b": false}, "T": {"type": "DT_FLOAT"}}}, {"name": "StatefulPartitionedCall/model_1/model/reshape/Shape", "op": "Shape", "input": ["StatefulPartitionedCall/model_1/model/expanded_conv/squeeze_excite/AvgPool/Mean"], "attr": {"out_type": {"type": "DT_INT32"}, "T": {"type": "DT_FLOAT"}}}, {"name": "StatefulPartitionedCall/model_1/model/reshape/strided_slice", "op": "StridedSlice", "input": ["StatefulPartitionedCall/model_1/model/reshape/Shape", "StatefulPartitionedCall/model_1/model/reshape/strided_slice/stack", "StatefulPartitionedCall/model_1/model/reshape/strided_slice/stack_1", "StatefulPartitionedCall/model_1/model/reshape/strided_slice/stack_2"], "attr": {"new_axis_mask": {"i": "0"}, "end_mask": {"i": "0"}, "shrink_axis_mask": {"i": "1"}, "T": {"type": "DT_INT32"}, "begin_mask": {"i": "0"}, "Index": {"type": "DT_INT32"}, "ellipsis_mask": {"i": "0"}}}, {"name": "StatefulPartitionedCall/model_1/model/reshape/Reshape/shape", "op": "Pack", "input": ["StatefulPartitionedCall/model_1/model/reshape/strided_slice", "StatefulPartitionedCall/model_1/model/reshape/Reshape/shape/1", "StatefulPartitionedCall/model_1/model/reshape/Reshape/shape/2", "StatefulPartitionedCall/model_1/model/reshape/Reshape/shape/3"], "attr": {"T": {"type": "DT_INT32"}, "axis": {"i": "0"}, "N": {"i": "4"}}}, {"name": "StatefulPartitionedCall/model_1/model/reshape/Reshape", "op": "Reshape", "input": ["StatefulPartitionedCall/model_1/model/expanded_conv/squeeze_excite/AvgPool/Mean", "StatefulPartitionedCall/model_1/model/reshape/Reshape/shape"], "attr": {"T": {"type": "DT_FLOAT"}, "Tshape": {"type": "DT_INT32"}}}, {"name": "StatefulPartitionedCall/model_1/model/expanded_conv/squeeze_excite/Relu/Relu", "op": "_FusedConv2D", "input": ["StatefulPartitionedCall/model_1/model/reshape/Reshape", "StatefulPartitionedCall/model_1/model/expanded_conv/squeeze_excite/Conv/Conv2D/ReadVariableOp", "StatefulPartitionedCall/model_1/model/expanded_conv/squeeze_excite/Conv/BiasAdd/ReadVariableOp"], "device": "/device:CPU:0", "attr": {"padding": {"s": "U0FNRQ=="}, "dilations": {"list": {"i": ["1", "1", "1", "1"]}}, "T": {"type": "DT_FLOAT"}, "strides": {"list": {"i": ["1", "1", "1", "1"]}}, "epsilon": {"f": 0.0}, "data_format": {"s": "TkhXQw=="}, "num_args": {"i": "1"}, "use_cudnn_on_gpu": {"b": true}, "explicit_paddings": {"list": {}}, "fused_ops": {"list": {"s": ["Qmlhc0FkZA==", "UmVsdQ=="]}}}}, {"name": "StatefulPartitionedCall/model_1/model/expanded_conv/squeeze_excite/Conv_1/BiasAdd", "op": "_FusedConv2D", "input": ["StatefulPartitionedCall/model_1/model/expanded_conv/squeeze_excite/Relu/Relu", "StatefulPartitionedCall/model_1/model/expanded_conv/squeeze_excite/Conv_1/Conv2D/ReadVariableOp", "StatefulPartitionedCall/model_1/model/expanded_conv/squeeze_excite/Conv_1/BiasAdd/ReadVariableOp"], "device": "/device:CPU:0", "attr": {"use_cudnn_on_gpu": {"b": true}, "dilations": {"list": {"i": ["1", "1", "1", "1"]}}, "padding": {"s": "U0FNRQ=="}, "epsilon": {"f": 0.0}, "T": {"type": "DT_FLOAT"}, "fused_ops": {"list": {"s": ["Qmlhc0FkZA=="]}}, "explicit_paddings": {"list": {}}, "strides": {"list": {"i": ["1", "1", "1", "1"]}}, "num_args": {"i": "1"}, "data_format": {"s": "TkhXQw=="}}}, {"name": "StatefulPartitionedCall/model_1/model/activation_2/Mul", "op": "Mul", "input": ["StatefulPartitionedCall/model_1/model/expanded_conv/squeeze_excite/Conv_1/BiasAdd", "StatefulPartitionedCall/model_1/model/activation_2/Const"], "attr": {"T": {"type": "DT_FLOAT"}}}, {"name": "StatefulPartitionedCall/model_1/model/activation_2/Add", "op": "Add", "input": ["StatefulPartitionedCall/model_1/model/activation_2/Mul", "StatefulPartitionedCall/model_1/model/activation_2/Const_1"], "attr": {"T": {"type": "DT_FLOAT"}}}, {"name": "StatefulPartitionedCall/model_1/model/activation_2/clip_by_value/Minimum", "op": "Minimum", "input": ["StatefulPartitionedCall/model_1/model/activation_2/Add", "StatefulPartitionedCall/model_1/model/activation_2/clip_by_value/Minimum/y"], "attr": {"T": {"type": "DT_FLOAT"}}}, {"name": "StatefulPartitionedCall/model_1/model/activation_2/clip_by_value", "op": "Maximum", "input": ["StatefulPartitionedCall/model_1/model/activation_2/clip_by_value/Minimum", "StatefulPartitionedCall/model_1/model/activation_2/clip_by_value/y"], "attr": {"T": {"type": "DT_FLOAT"}}}, {"name": "StatefulPartitionedCall/model_1/model/expanded_conv/squeeze_excite/Mul/mul", "op": "Mul", "input": ["StatefulPartitionedCall/model_1/model/activation_1/Relu", "StatefulPartitionedCall/model_1/model/activation_2/clip_by_value"], "attr": {"T": {"type": "DT_FLOAT"}}}, {"name": "StatefulPartitionedCall/model_1/model/expanded_conv/project/BatchNorm/batchnorm/mul_1", "op": "Conv2D", "input": ["StatefulPartitionedCall/model_1/model/expanded_conv/squeeze_excite/Mul/mul", "StatefulPartitionedCall/model_1/model/expanded_conv/project/Conv2D/merged_input"], "device": "/device:CPU:0", "attr": {"T": {"type": "DT_FLOAT"}, "padding": {"s": "U0FNRQ=="}, "data_format": {"s": "TkhXQw=="}, "use_cudnn_on_gpu": {"b": true}, "dilations": {"list": {"i": ["1", "1", "1", "1"]}}, "strides": {"list": {"i": ["1", "1", "1", "1"]}}, "explicit_paddings": {"list": {}}}}, {"name": "StatefulPartitionedCall/model_1/model/expanded_conv/project/BatchNorm/batchnorm/add_1", "op": "AddV2", "input": ["StatefulPartitionedCall/model_1/model/expanded_conv/project/BatchNorm/batchnorm/mul_1", "StatefulPartitionedCall/model_1/model/expanded_conv/project/BatchNorm/batchnorm/sub"], "attr": {"T": {"type": "DT_FLOAT"}}}, {"name": "StatefulPartitionedCall/model_1/model/expanded_conv_1/expand/BatchNorm/batchnorm/mul_1", "op": "Conv2D", "input": ["StatefulPartitionedCall/model_1/model/expanded_conv/project/BatchNorm/batchnorm/add_1", "StatefulPartitionedCall/model_1/model/expanded_conv_1/expand/Conv2D/merged_input"], "device": "/device:CPU:0", "attr": {"strides": {"list": {"i": ["1", "1", "1", "1"]}}, "padding": {"s": "U0FNRQ=="}, "T": {"type": "DT_FLOAT"}, "use_cudnn_on_gpu": {"b": true}, "explicit_paddings": {"list": {}}, "dilations": {"list": {"i": ["1", "1", "1", "1"]}}, "data_format": {"s": "TkhXQw=="}}}, {"name": "StatefulPartitionedCall/model_1/model/expanded_conv_1/expand/BatchNorm/batchnorm/add_1", "op": "AddV2", "input": ["StatefulPartitionedCall/model_1/model/expanded_conv_1/expand/BatchNorm/batchnorm/mul_1", "StatefulPartitionedCall/model_1/model/expanded_conv_1/expand/BatchNorm/batchnorm/sub"], "attr": {"T": {"type": "DT_FLOAT"}}}, {"name": "StatefulPartitionedCall/model_1/model/activation_3/Relu", "op": "Relu", "input": ["StatefulPartitionedCall/model_1/model/expanded_conv_1/expand/BatchNorm/batchnorm/add_1"], "attr": {"T": {"type": "DT_FLOAT"}}}, {"name": "StatefulPartitionedCall/model_1/model/expanded_conv_1/depthwise/Conv/depthwise", "op": "DepthwiseConv2dNative", "input": ["StatefulPartitionedCall/model_1/model/activation_3/Relu", "StatefulPartitionedCall/model_1/model/expanded_conv_1/depthwise/Conv/depthwise/ReadVariableOp"], "attr": {"T": {"type": "DT_FLOAT"}, "explicit_paddings": {"list": {}}, "strides": {"list": {"i": ["1", "2", "2", "1"]}}, "padding": {"s": "U0FNRQ=="}, "data_format": {"s": "TkhXQw=="}, "dilations": {"list": {"i": ["1", "1", "1", "1"]}}}}, {"name": "StatefulPartitionedCall/model_1/model/expanded_conv_1/depthwise/BatchNorm/batchnorm/mul_1", "op": "Mul", "input": ["StatefulPartitionedCall/model_1/model/expanded_conv_1/depthwise/Conv/depthwise", "StatefulPartitionedCall/model_1/model/expanded_conv_1/depthwise/BatchNorm/batchnorm/mul"], "attr": {"T": {"type": "DT_FLOAT"}}}, {"name": "StatefulPartitionedCall/model_1/model/expanded_conv_1/depthwise/BatchNorm/batchnorm/add_1", "op": "AddV2", "input": ["StatefulPartitionedCall/model_1/model/expanded_conv_1/depthwise/BatchNorm/batchnorm/mul_1", "StatefulPartitionedCall/model_1/model/expanded_conv_1/depthwise/BatchNorm/batchnorm/sub"], "attr": {"T": {"type": "DT_FLOAT"}}}, {"name": "StatefulPartitionedCall/model_1/model/activation_4/Relu", "op": "Relu", "input": ["StatefulPartitionedCall/model_1/model/expanded_conv_1/depthwise/BatchNorm/batchnorm/add_1"], "attr": {"T": {"type": "DT_FLOAT"}}}, {"name": "StatefulPartitionedCall/model_1/model/expanded_conv_1/project/BatchNorm/batchnorm/mul_1", "op": "Conv2D", "input": ["StatefulPartitionedCall/model_1/model/activation_4/Relu", "StatefulPartitionedCall/model_1/model/expanded_conv_1/project/Conv2D/merged_input"], "device": "/device:CPU:0", "attr": {"explicit_paddings": {"list": {}}, "use_cudnn_on_gpu": {"b": true}, "T": {"type": "DT_FLOAT"}, "strides": {"list": {"i": ["1", "1", "1", "1"]}}, "dilations": {"list": {"i": ["1", "1", "1", "1"]}}, "padding": {"s": "U0FNRQ=="}, "data_format": {"s": "TkhXQw=="}}}, {"name": "StatefulPartitionedCall/model_1/model/expanded_conv_1/project/BatchNorm/batchnorm/add_1", "op": "AddV2", "input": ["StatefulPartitionedCall/model_1/model/expanded_conv_1/project/BatchNorm/batchnorm/mul_1", "StatefulPartitionedCall/model_1/model/expanded_conv_1/project/BatchNorm/batchnorm/sub"], "attr": {"T": {"type": "DT_FLOAT"}}}, {"name": "StatefulPartitionedCall/model_1/model/expanded_conv_2/expand/BatchNorm/batchnorm/mul_1", "op": "Conv2D", "input": ["StatefulPartitionedCall/model_1/model/expanded_conv_1/project/BatchNorm/batchnorm/add_1", "StatefulPartitionedCall/model_1/model/expanded_conv_2/expand/Conv2D/merged_input"], "device": "/device:CPU:0", "attr": {"data_format": {"s": "TkhXQw=="}, "dilations": {"list": {"i": ["1", "1", "1", "1"]}}, "padding": {"s": "U0FNRQ=="}, "strides": {"list": {"i": ["1", "1", "1", "1"]}}, "T": {"type": "DT_FLOAT"}, "use_cudnn_on_gpu": {"b": true}, "explicit_paddings": {"list": {}}}}, {"name": "StatefulPartitionedCall/model_1/model/expanded_conv_2/expand/BatchNorm/batchnorm/add_1", "op": "AddV2", "input": ["StatefulPartitionedCall/model_1/model/expanded_conv_2/expand/BatchNorm/batchnorm/mul_1", "StatefulPartitionedCall/model_1/model/expanded_conv_2/expand/BatchNorm/batchnorm/sub"], "attr": {"T": {"type": "DT_FLOAT"}}}, {"name": "StatefulPartitionedCall/model_1/model/activation_5/Relu", "op": "Relu", "input": ["StatefulPartitionedCall/model_1/model/expanded_conv_2/expand/BatchNorm/batchnorm/add_1"], "attr": {"T": {"type": "DT_FLOAT"}}}, {"name": "StatefulPartitionedCall/model_1/model/expanded_conv_2/depthwise/Conv/depthwise", "op": "DepthwiseConv2dNative", "input": ["StatefulPartitionedCall/model_1/model/activation_5/Relu", "StatefulPartitionedCall/model_1/model/expanded_conv_2/depthwise/Conv/depthwise/ReadVariableOp"], "attr": {"explicit_paddings": {"list": {}}, "dilations": {"list": {"i": ["1", "1", "1", "1"]}}, "data_format": {"s": "TkhXQw=="}, "T": {"type": "DT_FLOAT"}, "strides": {"list": {"i": ["1", "1", "1", "1"]}}, "padding": {"s": "U0FNRQ=="}}}, {"name": "StatefulPartitionedCall/model_1/model/expanded_conv_2/depthwise/BatchNorm/batchnorm/mul_1", "op": "Mul", "input": ["StatefulPartitionedCall/model_1/model/expanded_conv_2/depthwise/Conv/depthwise", "StatefulPartitionedCall/model_1/model/expanded_conv_2/depthwise/BatchNorm/batchnorm/mul"], "attr": {"T": {"type": "DT_FLOAT"}}}, {"name": "StatefulPartitionedCall/model_1/model/expanded_conv_2/depthwise/BatchNorm/batchnorm/add_1", "op": "AddV2", "input": ["StatefulPartitionedCall/model_1/model/expanded_conv_2/depthwise/BatchNorm/batchnorm/mul_1", "StatefulPartitionedCall/model_1/model/expanded_conv_2/depthwise/BatchNorm/batchnorm/sub"], "attr": {"T": {"type": "DT_FLOAT"}}}, {"name": "StatefulPartitionedCall/model_1/model/activation_6/Relu", "op": "Relu", "input": ["StatefulPartitionedCall/model_1/model/expanded_conv_2/depthwise/BatchNorm/batchnorm/add_1"], "attr": {"T": {"type": "DT_FLOAT"}}}, {"name": "StatefulPartitionedCall/model_1/model/expanded_conv_2/project/BatchNorm/batchnorm/mul_1", "op": "Conv2D", "input": ["StatefulPartitionedCall/model_1/model/activation_6/Relu", "StatefulPartitionedCall/model_1/model/expanded_conv_2/project/Conv2D/merged_input"], "device": "/device:CPU:0", "attr": {"strides": {"list": {"i": ["1", "1", "1", "1"]}}, "explicit_paddings": {"list": {}}, "data_format": {"s": "TkhXQw=="}, "dilations": {"list": {"i": ["1", "1", "1", "1"]}}, "padding": {"s": "U0FNRQ=="}, "T": {"type": "DT_FLOAT"}, "use_cudnn_on_gpu": {"b": true}}}, {"name": "StatefulPartitionedCall/model_1/model/expanded_conv_2/Add/ArithmeticOptimizer/AddOpsRewrite_Leaf_1_add", "op": "AddN", "input": ["StatefulPartitionedCall/model_1/model/expanded_conv_1/project/BatchNorm/batchnorm/add_1", "StatefulPartitionedCall/model_1/model/expanded_conv_2/project/BatchNorm/batchnorm/mul_1"], "attr": {"T": {"type": "DT_FLOAT"}, "_grappler_ArithmeticOptimizer_AddOpsRewriteStage": {"b": true}, "N": {"i": "2"}}}, {"name": "StatefulPartitionedCall/model_1/model/expanded_conv_2/Add/ArithmeticOptimizer/AddOpsRewrite_add", "op": "AddV2", "input": ["StatefulPartitionedCall/model_1/model/expanded_conv_2/project/BatchNorm/batchnorm/sub", "StatefulPartitionedCall/model_1/model/expanded_conv_2/Add/ArithmeticOptimizer/AddOpsRewrite_Leaf_1_add"], "attr": {"_grappler_ArithmeticOptimizer_AddOpsRewriteStage": {"b": true}, "T": {"type": "DT_FLOAT"}}}, {"name": "StatefulPartitionedCall/model_1/model/expanded_conv_3/expand/BatchNorm/batchnorm/mul_1", "op": "Conv2D", "input": ["StatefulPartitionedCall/model_1/model/expanded_conv_2/Add/ArithmeticOptimizer/AddOpsRewrite_add", "StatefulPartitionedCall/model_1/model/expanded_conv_3/expand/Conv2D/merged_input"], "device": "/device:CPU:0", "attr": {"data_format": {"s": "TkhXQw=="}, "padding": {"s": "U0FNRQ=="}, "T": {"type": "DT_FLOAT"}, "strides": {"list": {"i": ["1", "1", "1", "1"]}}, "dilations": {"list": {"i": ["1", "1", "1", "1"]}}, "use_cudnn_on_gpu": {"b": true}, "explicit_paddings": {"list": {}}}}, {"name": "StatefulPartitionedCall/model_1/model/expanded_conv_3/expand/BatchNorm/batchnorm/add_1", "op": "AddV2", "input": ["StatefulPartitionedCall/model_1/model/expanded_conv_3/expand/BatchNorm/batchnorm/mul_1", "StatefulPartitionedCall/model_1/model/expanded_conv_3/expand/BatchNorm/batchnorm/sub"], "attr": {"T": {"type": "DT_FLOAT"}}}, {"name": "StatefulPartitionedCall/model_1/model/activation_7/activation_1/add", "op": "AddV2", "input": ["StatefulPartitionedCall/model_1/model/expanded_conv_3/expand/BatchNorm/batchnorm/add_1", "StatefulPartitionedCall/model_1/model/activation_7/activation_1/add/y"], "attr": {"T": {"type": "DT_FLOAT"}}}, {"name": "StatefulPartitionedCall/model_1/model/activation_7/activation_1/re_lu_1/Relu6", "op": "Relu6", "input": ["StatefulPartitionedCall/model_1/model/activation_7/activation_1/add"], "attr": {"T": {"type": "DT_FLOAT"}}}, {"name": "StatefulPartitionedCall/model_1/model/activation_7/activation_1/mul", "op": "Mul", "input": ["StatefulPartitionedCall/model_1/model/activation_7/activation_1/mul/y", "StatefulPartitionedCall/model_1/model/activation_7/activation_1/re_lu_1/Relu6"], "attr": {"T": {"type": "DT_FLOAT"}, "_grappler_ArithmeticOptimizer_MinimizeBroadcasts": {"b": true}}}, {"name": "StatefulPartitionedCall/model_1/model/activation_7/multiply_1/mul", "op": "Mul", "input": ["StatefulPartitionedCall/model_1/model/activation_7/activation_1/mul", "StatefulPartitionedCall/model_1/model/expanded_conv_3/expand/BatchNorm/batchnorm/add_1"], "attr": {"T": {"type": "DT_FLOAT"}, "_grappler_ArithmeticOptimizer_MinimizeBroadcasts": {"b": true}}}, {"name": "StatefulPartitionedCall/model_1/model/expanded_conv_3/depthwise/Conv/depthwise", "op": "DepthwiseConv2dNative", "input": ["StatefulPartitionedCall/model_1/model/activation_7/multiply_1/mul", "StatefulPartitionedCall/model_1/model/expanded_conv_3/depthwise/Conv/depthwise/ReadVariableOp"], "attr": {"strides": {"list": {"i": ["1", "1", "1", "1"]}}, "explicit_paddings": {"list": {}}, "dilations": {"list": {"i": ["1", "1", "1", "1"]}}, "data_format": {"s": "TkhXQw=="}, "padding": {"s": "U0FNRQ=="}, "T": {"type": "DT_FLOAT"}}}, {"name": "StatefulPartitionedCall/model_1/model/expanded_conv_3/depthwise/BatchNorm/batchnorm/mul_1", "op": "Mul", "input": ["StatefulPartitionedCall/model_1/model/expanded_conv_3/depthwise/Conv/depthwise", "StatefulPartitionedCall/model_1/model/expanded_conv_3/depthwise/BatchNorm/batchnorm/mul"], "attr": {"T": {"type": "DT_FLOAT"}}}, {"name": "StatefulPartitionedCall/model_1/model/expanded_conv_3/depthwise/BatchNorm/batchnorm/add_1", "op": "AddV2", "input": ["StatefulPartitionedCall/model_1/model/expanded_conv_3/depthwise/BatchNorm/batchnorm/mul_1", "StatefulPartitionedCall/model_1/model/expanded_conv_3/depthwise/BatchNorm/batchnorm/sub"], "attr": {"T": {"type": "DT_FLOAT"}}}, {"name": "StatefulPartitionedCall/model_1/model/activation_8/activation_2/add", "op": "AddV2", "input": ["StatefulPartitionedCall/model_1/model/expanded_conv_3/depthwise/BatchNorm/batchnorm/add_1", "StatefulPartitionedCall/model_1/model/activation_8/activation_2/add/y"], "attr": {"T": {"type": "DT_FLOAT"}}}, {"name": "StatefulPartitionedCall/model_1/model/activation_8/activation_2/re_lu_2/Relu6", "op": "Relu6", "input": ["StatefulPartitionedCall/model_1/model/activation_8/activation_2/add"], "attr": {"T": {"type": "DT_FLOAT"}}}, {"name": "StatefulPartitionedCall/model_1/model/activation_8/activation_2/mul", "op": "Mul", "input": ["StatefulPartitionedCall/model_1/model/activation_8/activation_2/mul/y", "StatefulPartitionedCall/model_1/model/activation_8/activation_2/re_lu_2/Relu6"], "attr": {"T": {"type": "DT_FLOAT"}, "_grappler_ArithmeticOptimizer_MinimizeBroadcasts": {"b": true}}}, {"name": "StatefulPartitionedCall/model_1/model/activation_8/multiply_2/mul", "op": "Mul", "input": ["StatefulPartitionedCall/model_1/model/activation_8/activation_2/mul", "StatefulPartitionedCall/model_1/model/expanded_conv_3/depthwise/BatchNorm/batchnorm/add_1"], "attr": {"T": {"type": "DT_FLOAT"}, "_grappler_ArithmeticOptimizer_MinimizeBroadcasts": {"b": true}}}, {"name": "StatefulPartitionedCall/model_1/model/expanded_conv_3/squeeze_excite/AvgPool/Mean", "op": "Mean", "input": ["StatefulPartitionedCall/model_1/model/activation_8/multiply_2/mul", "StatefulPartitionedCall/model_1/model/expanded_conv_3/squeeze_excite/AvgPool/Mean/reduction_indices"], "attr": {"keep_dims": {"b": false}, "Tidx": {"type": "DT_INT32"}, "T": {"type": "DT_FLOAT"}}}, {"name": "StatefulPartitionedCall/model_1/model/reshape_1/Shape", "op": "Shape", "input": ["StatefulPartitionedCall/model_1/model/expanded_conv_3/squeeze_excite/AvgPool/Mean"], "attr": {"out_type": {"type": "DT_INT32"}, "T": {"type": "DT_FLOAT"}}}, {"name": "StatefulPartitionedCall/model_1/model/reshape_1/strided_slice", "op": "StridedSlice", "input": ["StatefulPartitionedCall/model_1/model/reshape_1/Shape", "StatefulPartitionedCall/model_1/model/reshape_1/strided_slice/stack", "StatefulPartitionedCall/model_1/model/reshape_1/strided_slice/stack_1", "StatefulPartitionedCall/model_1/model/reshape_1/strided_slice/stack_2"], "attr": {"shrink_axis_mask": {"i": "1"}, "T": {"type": "DT_INT32"}, "begin_mask": {"i": "0"}, "new_axis_mask": {"i": "0"}, "Index": {"type": "DT_INT32"}, "end_mask": {"i": "0"}, "ellipsis_mask": {"i": "0"}}}, {"name": "StatefulPartitionedCall/model_1/model/reshape_1/Reshape/shape", "op": "Pack", "input": ["StatefulPartitionedCall/model_1/model/reshape_1/strided_slice", "StatefulPartitionedCall/model_1/model/reshape_1/Reshape/shape/1", "StatefulPartitionedCall/model_1/model/reshape_1/Reshape/shape/2", "StatefulPartitionedCall/model_1/model/reshape_1/Reshape/shape/3"], "attr": {"T": {"type": "DT_INT32"}, "N": {"i": "4"}, "axis": {"i": "0"}}}, {"name": "StatefulPartitionedCall/model_1/model/reshape_1/Reshape", "op": "Reshape", "input": ["StatefulPartitionedCall/model_1/model/expanded_conv_3/squeeze_excite/AvgPool/Mean", "StatefulPartitionedCall/model_1/model/reshape_1/Reshape/shape"], "attr": {"Tshape": {"type": "DT_INT32"}, "T": {"type": "DT_FLOAT"}}}, {"name": "StatefulPartitionedCall/model_1/model/expanded_conv_3/squeeze_excite/Relu/Relu", "op": "_FusedConv2D", "input": ["StatefulPartitionedCall/model_1/model/reshape_1/Reshape", "StatefulPartitionedCall/model_1/model/expanded_conv_3/squeeze_excite/Conv/Conv2D/ReadVariableOp", "StatefulPartitionedCall/model_1/model/expanded_conv_3/squeeze_excite/Conv/BiasAdd/ReadVariableOp"], "device": "/device:CPU:0", "attr": {"T": {"type": "DT_FLOAT"}, "explicit_paddings": {"list": {}}, "num_args": {"i": "1"}, "use_cudnn_on_gpu": {"b": true}, "padding": {"s": "U0FNRQ=="}, "dilations": {"list": {"i": ["1", "1", "1", "1"]}}, "epsilon": {"f": 0.0}, "data_format": {"s": "TkhXQw=="}, "fused_ops": {"list": {"s": ["Qmlhc0FkZA==", "UmVsdQ=="]}}, "strides": {"list": {"i": ["1", "1", "1", "1"]}}}}, {"name": "StatefulPartitionedCall/model_1/model/expanded_conv_3/squeeze_excite/Conv_1/BiasAdd", "op": "_FusedConv2D", "input": ["StatefulPartitionedCall/model_1/model/expanded_conv_3/squeeze_excite/Relu/Relu", "StatefulPartitionedCall/model_1/model/expanded_conv_3/squeeze_excite/Conv_1/Conv2D/ReadVariableOp", "StatefulPartitionedCall/model_1/model/expanded_conv_3/squeeze_excite/Conv_1/BiasAdd/ReadVariableOp"], "device": "/device:CPU:0", "attr": {"T": {"type": "DT_FLOAT"}, "num_args": {"i": "1"}, "fused_ops": {"list": {"s": ["Qmlhc0FkZA=="]}}, "dilations": {"list": {"i": ["1", "1", "1", "1"]}}, "padding": {"s": "U0FNRQ=="}, "data_format": {"s": "TkhXQw=="}, "explicit_paddings": {"list": {}}, "use_cudnn_on_gpu": {"b": true}, "epsilon": {"f": 0.0}, "strides": {"list": {"i": ["1", "1", "1", "1"]}}}}, {"name": "StatefulPartitionedCall/model_1/model/activation_9/Mul", "op": "Mul", "input": ["StatefulPartitionedCall/model_1/model/expanded_conv_3/squeeze_excite/Conv_1/BiasAdd", "StatefulPartitionedCall/model_1/model/activation_9/Const"], "attr": {"T": {"type": "DT_FLOAT"}}}, {"name": "StatefulPartitionedCall/model_1/model/activation_9/Add", "op": "Add", "input": ["StatefulPartitionedCall/model_1/model/activation_9/Mul", "StatefulPartitionedCall/model_1/model/activation_9/Const_1"], "attr": {"T": {"type": "DT_FLOAT"}}}, {"name": "StatefulPartitionedCall/model_1/model/activation_9/clip_by_value/Minimum", "op": "Minimum", "input": ["StatefulPartitionedCall/model_1/model/activation_9/Add", "StatefulPartitionedCall/model_1/model/activation_9/clip_by_value/Minimum/y"], "attr": {"T": {"type": "DT_FLOAT"}}}, {"name": "StatefulPartitionedCall/model_1/model/activation_9/clip_by_value", "op": "Maximum", "input": ["StatefulPartitionedCall/model_1/model/activation_9/clip_by_value/Minimum", "StatefulPartitionedCall/model_1/model/activation_9/clip_by_value/y"], "attr": {"T": {"type": "DT_FLOAT"}}}, {"name": "StatefulPartitionedCall/model_1/model/expanded_conv_3/squeeze_excite/Mul/mul", "op": "Mul", "input": ["StatefulPartitionedCall/model_1/model/activation_8/multiply_2/mul", "StatefulPartitionedCall/model_1/model/activation_9/clip_by_value"], "attr": {"T": {"type": "DT_FLOAT"}}}, {"name": "StatefulPartitionedCall/model_1/model/expanded_conv_3/project/BatchNorm/batchnorm/mul_1", "op": "Conv2D", "input": ["StatefulPartitionedCall/model_1/model/expanded_conv_3/squeeze_excite/Mul/mul", "StatefulPartitionedCall/model_1/model/expanded_conv_3/project/Conv2D/merged_input"], "device": "/device:CPU:0", "attr": {"data_format": {"s": "TkhXQw=="}, "explicit_paddings": {"list": {}}, "padding": {"s": "U0FNRQ=="}, "use_cudnn_on_gpu": {"b": true}, "strides": {"list": {"i": ["1", "1", "1", "1"]}}, "T": {"type": "DT_FLOAT"}, "dilations": {"list": {"i": ["1", "1", "1", "1"]}}}}, {"name": "StatefulPartitionedCall/model_1/model/expanded_conv_3/project/BatchNorm/batchnorm/add_1", "op": "AddV2", "input": ["StatefulPartitionedCall/model_1/model/expanded_conv_3/project/BatchNorm/batchnorm/mul_1", "StatefulPartitionedCall/model_1/model/expanded_conv_3/project/BatchNorm/batchnorm/sub"], "attr": {"T": {"type": "DT_FLOAT"}}}, {"name": "StatefulPartitionedCall/model_1/model/expanded_conv_4/expand/BatchNorm/batchnorm/mul_1", "op": "Conv2D", "input": ["StatefulPartitionedCall/model_1/model/expanded_conv_3/project/BatchNorm/batchnorm/add_1", "StatefulPartitionedCall/model_1/model/expanded_conv_4/expand/Conv2D/merged_input"], "device": "/device:CPU:0", "attr": {"strides": {"list": {"i": ["1", "1", "1", "1"]}}, "padding": {"s": "U0FNRQ=="}, "dilations": {"list": {"i": ["1", "1", "1", "1"]}}, "use_cudnn_on_gpu": {"b": true}, "T": {"type": "DT_FLOAT"}, "data_format": {"s": "TkhXQw=="}, "explicit_paddings": {"list": {}}}}, {"name": "StatefulPartitionedCall/model_1/model/expanded_conv_4/expand/BatchNorm/batchnorm/add_1", "op": "AddV2", "input": ["StatefulPartitionedCall/model_1/model/expanded_conv_4/expand/BatchNorm/batchnorm/mul_1", "StatefulPartitionedCall/model_1/model/expanded_conv_4/expand/BatchNorm/batchnorm/sub"], "attr": {"T": {"type": "DT_FLOAT"}}}, {"name": "StatefulPartitionedCall/model_1/model/activation_10/activation_3/add", "op": "AddV2", "input": ["StatefulPartitionedCall/model_1/model/expanded_conv_4/expand/BatchNorm/batchnorm/add_1", "StatefulPartitionedCall/model_1/model/activation_10/activation_3/add/y"], "attr": {"T": {"type": "DT_FLOAT"}}}, {"name": "StatefulPartitionedCall/model_1/model/activation_10/activation_3/re_lu_3/Relu6", "op": "Relu6", "input": ["StatefulPartitionedCall/model_1/model/activation_10/activation_3/add"], "attr": {"T": {"type": "DT_FLOAT"}}}, {"name": "StatefulPartitionedCall/model_1/model/activation_10/activation_3/mul", "op": "Mul", "input": ["StatefulPartitionedCall/model_1/model/activation_10/activation_3/mul/y", "StatefulPartitionedCall/model_1/model/activation_10/activation_3/re_lu_3/Relu6"], "attr": {"T": {"type": "DT_FLOAT"}, "_grappler_ArithmeticOptimizer_MinimizeBroadcasts": {"b": true}}}, {"name": "StatefulPartitionedCall/model_1/model/activation_10/multiply_3/mul", "op": "Mul", "input": ["StatefulPartitionedCall/model_1/model/activation_10/activation_3/mul", "StatefulPartitionedCall/model_1/model/expanded_conv_4/expand/BatchNorm/batchnorm/add_1"], "attr": {"_grappler_ArithmeticOptimizer_MinimizeBroadcasts": {"b": true}, "T": {"type": "DT_FLOAT"}}}, {"name": "StatefulPartitionedCall/model_1/model/expanded_conv_4/depthwise/Conv/depthwise/SpaceToBatchND", "op": "SpaceToBatchND", "input": ["StatefulPartitionedCall/model_1/model/activation_10/multiply_3/mul", "StatefulPartitionedCall/model_1/model/expanded_conv_4/depthwise/Conv/depthwise/SpaceToBatchND/block_shape", "StatefulPartitionedCall/model_1/model/expanded_conv_4/depthwise/Conv/depthwise/SpaceToBatchND/paddings"], "attr": {"T": {"type": "DT_FLOAT"}, "Tpaddings": {"type": "DT_INT32"}, "Tblock_shape": {"type": "DT_INT32"}}}, {"name": "StatefulPartitionedCall/model_1/model/expanded_conv_4/depthwise/Conv/depthwise", "op": "DepthwiseConv2dNative", "input": ["StatefulPartitionedCall/model_1/model/expanded_conv_4/depthwise/Conv/depthwise/SpaceToBatchND", "StatefulPartitionedCall/model_1/model/expanded_conv_4/depthwise/Conv/depthwise/ReadVariableOp"], "attr": {"strides": {"list": {"i": ["1", "1", "1", "1"]}}, "data_format": {"s": "TkhXQw=="}, "dilations": {"list": {"i": ["1", "1", "1", "1"]}}, "padding": {"s": "VkFMSUQ="}, "explicit_paddings": {"list": {}}, "T": {"type": "DT_FLOAT"}}}, {"name": "StatefulPartitionedCall/model_1/model/expanded_conv_4/depthwise/Conv/depthwise/BatchToSpaceND", "op": "BatchToSpaceND", "input": ["StatefulPartitionedCall/model_1/model/expanded_conv_4/depthwise/Conv/depthwise", "StatefulPartitionedCall/model_1/model/expanded_conv_4/depthwise/Conv/depthwise/BatchToSpaceND/block_shape", "StatefulPartitionedCall/model_1/model/expanded_conv_4/depthwise/Conv/depthwise/BatchToSpaceND/crops"], "attr": {"Tblock_shape": {"type": "DT_INT32"}, "T": {"type": "DT_FLOAT"}, "Tcrops": {"type": "DT_INT32"}}}, {"name": "StatefulPartitionedCall/model_1/model/expanded_conv_4/depthwise/BatchNorm/batchnorm/mul_1", "op": "Mul", "input": ["StatefulPartitionedCall/model_1/model/expanded_conv_4/depthwise/Conv/depthwise/BatchToSpaceND", "StatefulPartitionedCall/model_1/model/expanded_conv_4/depthwise/BatchNorm/batchnorm/mul"], "attr": {"T": {"type": "DT_FLOAT"}}}, {"name": "StatefulPartitionedCall/model_1/model/expanded_conv_4/depthwise/BatchNorm/batchnorm/add_1", "op": "AddV2", "input": ["StatefulPartitionedCall/model_1/model/expanded_conv_4/depthwise/BatchNorm/batchnorm/mul_1", "StatefulPartitionedCall/model_1/model/expanded_conv_4/depthwise/BatchNorm/batchnorm/sub"], "attr": {"T": {"type": "DT_FLOAT"}}}, {"name": "StatefulPartitionedCall/model_1/model/activation_11/activation_4/add", "op": "AddV2", "input": ["StatefulPartitionedCall/model_1/model/expanded_conv_4/depthwise/BatchNorm/batchnorm/add_1", "StatefulPartitionedCall/model_1/model/activation_11/activation_4/add/y"], "attr": {"T": {"type": "DT_FLOAT"}}}, {"name": "StatefulPartitionedCall/model_1/model/activation_11/activation_4/re_lu_4/Relu6", "op": "Relu6", "input": ["StatefulPartitionedCall/model_1/model/activation_11/activation_4/add"], "attr": {"T": {"type": "DT_FLOAT"}}}, {"name": "StatefulPartitionedCall/model_1/model/activation_11/activation_4/mul", "op": "Mul", "input": ["StatefulPartitionedCall/model_1/model/activation_11/activation_4/mul/y", "StatefulPartitionedCall/model_1/model/activation_11/activation_4/re_lu_4/Relu6"], "attr": {"_grappler_ArithmeticOptimizer_MinimizeBroadcasts": {"b": true}, "T": {"type": "DT_FLOAT"}}}, {"name": "StatefulPartitionedCall/model_1/model/activation_11/multiply_4/mul", "op": "Mul", "input": ["StatefulPartitionedCall/model_1/model/activation_11/activation_4/mul", "StatefulPartitionedCall/model_1/model/expanded_conv_4/depthwise/BatchNorm/batchnorm/add_1"], "attr": {"_grappler_ArithmeticOptimizer_MinimizeBroadcasts": {"b": true}, "T": {"type": "DT_FLOAT"}}}, {"name": "StatefulPartitionedCall/model_1/model/expanded_conv_4/squeeze_excite/AvgPool/Mean", "op": "Mean", "input": ["StatefulPartitionedCall/model_1/model/activation_11/multiply_4/mul", "StatefulPartitionedCall/model_1/model/expanded_conv_4/squeeze_excite/AvgPool/Mean/reduction_indices"], "attr": {"Tidx": {"type": "DT_INT32"}, "keep_dims": {"b": false}, "T": {"type": "DT_FLOAT"}}}, {"name": "StatefulPartitionedCall/model_1/model/reshape_2/Shape", "op": "Shape", "input": ["StatefulPartitionedCall/model_1/model/expanded_conv_4/squeeze_excite/AvgPool/Mean"], "attr": {"T": {"type": "DT_FLOAT"}, "out_type": {"type": "DT_INT32"}}}, {"name": "StatefulPartitionedCall/model_1/model/reshape_2/strided_slice", "op": "StridedSlice", "input": ["StatefulPartitionedCall/model_1/model/reshape_2/Shape", "StatefulPartitionedCall/model_1/model/reshape_2/strided_slice/stack", "StatefulPartitionedCall/model_1/model/reshape_2/strided_slice/stack_1", "StatefulPartitionedCall/model_1/model/reshape_2/strided_slice/stack_2"], "attr": {"ellipsis_mask": {"i": "0"}, "T": {"type": "DT_INT32"}, "shrink_axis_mask": {"i": "1"}, "begin_mask": {"i": "0"}, "Index": {"type": "DT_INT32"}, "end_mask": {"i": "0"}, "new_axis_mask": {"i": "0"}}}, {"name": "StatefulPartitionedCall/model_1/model/reshape_2/Reshape/shape", "op": "Pack", "input": ["StatefulPartitionedCall/model_1/model/reshape_2/strided_slice", "StatefulPartitionedCall/model_1/model/reshape_2/Reshape/shape/1", "StatefulPartitionedCall/model_1/model/reshape_2/Reshape/shape/2", "StatefulPartitionedCall/model_1/model/reshape_2/Reshape/shape/3"], "attr": {"N": {"i": "4"}, "T": {"type": "DT_INT32"}, "axis": {"i": "0"}}}, {"name": "StatefulPartitionedCall/model_1/model/reshape_2/Reshape", "op": "Reshape", "input": ["StatefulPartitionedCall/model_1/model/expanded_conv_4/squeeze_excite/AvgPool/Mean", "StatefulPartitionedCall/model_1/model/reshape_2/Reshape/shape"], "attr": {"Tshape": {"type": "DT_INT32"}, "T": {"type": "DT_FLOAT"}}}, {"name": "StatefulPartitionedCall/model_1/model/expanded_conv_4/squeeze_excite/Relu/Relu", "op": "_FusedConv2D", "input": ["StatefulPartitionedCall/model_1/model/reshape_2/Reshape", "StatefulPartitionedCall/model_1/model/expanded_conv_4/squeeze_excite/Conv/Conv2D/ReadVariableOp", "StatefulPartitionedCall/model_1/model/expanded_conv_4/squeeze_excite/Conv/BiasAdd/ReadVariableOp"], "device": "/device:CPU:0", "attr": {"epsilon": {"f": 0.0}, "data_format": {"s": "TkhXQw=="}, "num_args": {"i": "1"}, "padding": {"s": "U0FNRQ=="}, "fused_ops": {"list": {"s": ["Qmlhc0FkZA==", "UmVsdQ=="]}}, "dilations": {"list": {"i": ["1", "1", "1", "1"]}}, "use_cudnn_on_gpu": {"b": true}, "strides": {"list": {"i": ["1", "1", "1", "1"]}}, "T": {"type": "DT_FLOAT"}, "explicit_paddings": {"list": {}}}}, {"name": "StatefulPartitionedCall/model_1/model/expanded_conv_4/squeeze_excite/Conv_1/BiasAdd", "op": "_FusedConv2D", "input": ["StatefulPartitionedCall/model_1/model/expanded_conv_4/squeeze_excite/Relu/Relu", "StatefulPartitionedCall/model_1/model/expanded_conv_4/squeeze_excite/Conv_1/Conv2D/ReadVariableOp", "StatefulPartitionedCall/model_1/model/expanded_conv_4/squeeze_excite/Conv_1/BiasAdd/ReadVariableOp"], "device": "/device:CPU:0", "attr": {"epsilon": {"f": 0.0}, "data_format": {"s": "TkhXQw=="}, "strides": {"list": {"i": ["1", "1", "1", "1"]}}, "padding": {"s": "U0FNRQ=="}, "fused_ops": {"list": {"s": ["Qmlhc0FkZA=="]}}, "T": {"type": "DT_FLOAT"}, "num_args": {"i": "1"}, "explicit_paddings": {"list": {}}, "dilations": {"list": {"i": ["1", "1", "1", "1"]}}, "use_cudnn_on_gpu": {"b": true}}}, {"name": "StatefulPartitionedCall/model_1/model/activation_12/Mul", "op": "Mul", "input": ["StatefulPartitionedCall/model_1/model/expanded_conv_4/squeeze_excite/Conv_1/BiasAdd", "StatefulPartitionedCall/model_1/model/activation_12/Const"], "attr": {"T": {"type": "DT_FLOAT"}}}, {"name": "StatefulPartitionedCall/model_1/model/activation_12/Add", "op": "Add", "input": ["StatefulPartitionedCall/model_1/model/activation_12/Mul", "StatefulPartitionedCall/model_1/model/activation_12/Const_1"], "attr": {"T": {"type": "DT_FLOAT"}}}, {"name": "StatefulPartitionedCall/model_1/model/activation_12/clip_by_value/Minimum", "op": "Minimum", "input": ["StatefulPartitionedCall/model_1/model/activation_12/Add", "StatefulPartitionedCall/model_1/model/activation_12/clip_by_value/Minimum/y"], "attr": {"T": {"type": "DT_FLOAT"}}}, {"name": "StatefulPartitionedCall/model_1/model/activation_12/clip_by_value", "op": "Maximum", "input": ["StatefulPartitionedCall/model_1/model/activation_12/clip_by_value/Minimum", "StatefulPartitionedCall/model_1/model/activation_12/clip_by_value/y"], "attr": {"T": {"type": "DT_FLOAT"}}}, {"name": "StatefulPartitionedCall/model_1/model/expanded_conv_4/squeeze_excite/Mul/mul", "op": "Mul", "input": ["StatefulPartitionedCall/model_1/model/activation_11/multiply_4/mul", "StatefulPartitionedCall/model_1/model/activation_12/clip_by_value"], "attr": {"T": {"type": "DT_FLOAT"}}}, {"name": "StatefulPartitionedCall/model_1/model/expanded_conv_4/project/BatchNorm/batchnorm/mul_1", "op": "Conv2D", "input": ["StatefulPartitionedCall/model_1/model/expanded_conv_4/squeeze_excite/Mul/mul", "StatefulPartitionedCall/model_1/model/expanded_conv_4/project/Conv2D/merged_input"], "device": "/device:CPU:0", "attr": {"use_cudnn_on_gpu": {"b": true}, "dilations": {"list": {"i": ["1", "1", "1", "1"]}}, "T": {"type": "DT_FLOAT"}, "data_format": {"s": "TkhXQw=="}, "strides": {"list": {"i": ["1", "1", "1", "1"]}}, "padding": {"s": "U0FNRQ=="}, "explicit_paddings": {"list": {}}}}, {"name": "StatefulPartitionedCall/model_1/model/expanded_conv_4/project/BatchNorm/batchnorm/add_1", "op": "AddV2", "input": ["StatefulPartitionedCall/model_1/model/expanded_conv_4/project/BatchNorm/batchnorm/mul_1", "StatefulPartitionedCall/model_1/model/expanded_conv_4/project/BatchNorm/batchnorm/sub"], "attr": {"T": {"type": "DT_FLOAT"}}}, {"name": "StatefulPartitionedCall/model_1/model/expanded_conv_4/Add/add", "op": "AddV2", "input": ["StatefulPartitionedCall/model_1/model/expanded_conv_3/project/BatchNorm/batchnorm/add_1", "StatefulPartitionedCall/model_1/model/expanded_conv_4/project/BatchNorm/batchnorm/add_1"], "attr": {"T": {"type": "DT_FLOAT"}}}, {"name": "StatefulPartitionedCall/model_1/model/expanded_conv_5/expand/BatchNorm/batchnorm/mul_1", "op": "Conv2D", "input": ["StatefulPartitionedCall/model_1/model/expanded_conv_4/Add/add", "StatefulPartitionedCall/model_1/model/expanded_conv_5/expand/Conv2D/merged_input"], "device": "/device:CPU:0", "attr": {"T": {"type": "DT_FLOAT"}, "padding": {"s": "U0FNRQ=="}, "dilations": {"list": {"i": ["1", "1", "1", "1"]}}, "strides": {"list": {"i": ["1", "1", "1", "1"]}}, "use_cudnn_on_gpu": {"b": true}, "data_format": {"s": "TkhXQw=="}, "explicit_paddings": {"list": {}}}}, {"name": "StatefulPartitionedCall/model_1/model/expanded_conv_5/expand/BatchNorm/batchnorm/add_1", "op": "AddV2", "input": ["StatefulPartitionedCall/model_1/model/expanded_conv_5/expand/BatchNorm/batchnorm/mul_1", "StatefulPartitionedCall/model_1/model/expanded_conv_5/expand/BatchNorm/batchnorm/sub"], "attr": {"T": {"type": "DT_FLOAT"}}}, {"name": "StatefulPartitionedCall/model_1/model/activation_13/activation_5/add", "op": "AddV2", "input": ["StatefulPartitionedCall/model_1/model/expanded_conv_5/expand/BatchNorm/batchnorm/add_1", "StatefulPartitionedCall/model_1/model/activation_13/activation_5/add/y"], "attr": {"T": {"type": "DT_FLOAT"}}}, {"name": "StatefulPartitionedCall/model_1/model/activation_13/activation_5/re_lu_5/Relu6", "op": "Relu6", "input": ["StatefulPartitionedCall/model_1/model/activation_13/activation_5/add"], "attr": {"T": {"type": "DT_FLOAT"}}}, {"name": "StatefulPartitionedCall/model_1/model/activation_13/activation_5/mul", "op": "Mul", "input": ["StatefulPartitionedCall/model_1/model/activation_13/activation_5/mul/y", "StatefulPartitionedCall/model_1/model/activation_13/activation_5/re_lu_5/Relu6"], "attr": {"_grappler_ArithmeticOptimizer_MinimizeBroadcasts": {"b": true}, "T": {"type": "DT_FLOAT"}}}, {"name": "StatefulPartitionedCall/model_1/model/activation_13/multiply_5/mul", "op": "Mul", "input": ["StatefulPartitionedCall/model_1/model/activation_13/activation_5/mul", "StatefulPartitionedCall/model_1/model/expanded_conv_5/expand/BatchNorm/batchnorm/add_1"], "attr": {"_grappler_ArithmeticOptimizer_MinimizeBroadcasts": {"b": true}, "T": {"type": "DT_FLOAT"}}}, {"name": "StatefulPartitionedCall/model_1/model/expanded_conv_5/depthwise/Conv/depthwise/SpaceToBatchND", "op": "SpaceToBatchND", "input": ["StatefulPartitionedCall/model_1/model/activation_13/multiply_5/mul", "StatefulPartitionedCall/model_1/model/expanded_conv_5/depthwise/Conv/depthwise/SpaceToBatchND/block_shape", "StatefulPartitionedCall/model_1/model/expanded_conv_5/depthwise/Conv/depthwise/SpaceToBatchND/paddings"], "attr": {"Tblock_shape": {"type": "DT_INT32"}, "Tpaddings": {"type": "DT_INT32"}, "T": {"type": "DT_FLOAT"}}}, {"name": "StatefulPartitionedCall/model_1/model/expanded_conv_5/depthwise/Conv/depthwise", "op": "DepthwiseConv2dNative", "input": ["StatefulPartitionedCall/model_1/model/expanded_conv_5/depthwise/Conv/depthwise/SpaceToBatchND", "StatefulPartitionedCall/model_1/model/expanded_conv_5/depthwise/Conv/depthwise/ReadVariableOp"], "attr": {"dilations": {"list": {"i": ["1", "1", "1", "1"]}}, "data_format": {"s": "TkhXQw=="}, "explicit_paddings": {"list": {}}, "T": {"type": "DT_FLOAT"}, "padding": {"s": "VkFMSUQ="}, "strides": {"list": {"i": ["1", "1", "1", "1"]}}}}, {"name": "StatefulPartitionedCall/model_1/model/expanded_conv_5/depthwise/Conv/depthwise/BatchToSpaceND", "op": "BatchToSpaceND", "input": ["StatefulPartitionedCall/model_1/model/expanded_conv_5/depthwise/Conv/depthwise", "StatefulPartitionedCall/model_1/model/expanded_conv_5/depthwise/Conv/depthwise/BatchToSpaceND/block_shape", "StatefulPartitionedCall/model_1/model/expanded_conv_5/depthwise/Conv/depthwise/BatchToSpaceND/crops"], "attr": {"Tcrops": {"type": "DT_INT32"}, "T": {"type": "DT_FLOAT"}, "Tblock_shape": {"type": "DT_INT32"}}}, {"name": "StatefulPartitionedCall/model_1/model/expanded_conv_5/depthwise/BatchNorm/batchnorm/mul_1", "op": "Mul", "input": ["StatefulPartitionedCall/model_1/model/expanded_conv_5/depthwise/Conv/depthwise/BatchToSpaceND", "StatefulPartitionedCall/model_1/model/expanded_conv_5/depthwise/BatchNorm/batchnorm/mul"], "attr": {"T": {"type": "DT_FLOAT"}}}, {"name": "StatefulPartitionedCall/model_1/model/expanded_conv_5/depthwise/BatchNorm/batchnorm/add_1", "op": "AddV2", "input": ["StatefulPartitionedCall/model_1/model/expanded_conv_5/depthwise/BatchNorm/batchnorm/mul_1", "StatefulPartitionedCall/model_1/model/expanded_conv_5/depthwise/BatchNorm/batchnorm/sub"], "attr": {"T": {"type": "DT_FLOAT"}}}, {"name": "StatefulPartitionedCall/model_1/model/activation_14/activation_6/add", "op": "AddV2", "input": ["StatefulPartitionedCall/model_1/model/expanded_conv_5/depthwise/BatchNorm/batchnorm/add_1", "StatefulPartitionedCall/model_1/model/activation_14/activation_6/add/y"], "attr": {"T": {"type": "DT_FLOAT"}}}, {"name": "StatefulPartitionedCall/model_1/model/activation_14/activation_6/re_lu_6/Relu6", "op": "Relu6", "input": ["StatefulPartitionedCall/model_1/model/activation_14/activation_6/add"], "attr": {"T": {"type": "DT_FLOAT"}}}, {"name": "StatefulPartitionedCall/model_1/model/activation_14/activation_6/mul", "op": "Mul", "input": ["StatefulPartitionedCall/model_1/model/activation_14/activation_6/mul/y", "StatefulPartitionedCall/model_1/model/activation_14/activation_6/re_lu_6/Relu6"], "attr": {"T": {"type": "DT_FLOAT"}, "_grappler_ArithmeticOptimizer_MinimizeBroadcasts": {"b": true}}}, {"name": "StatefulPartitionedCall/model_1/model/activation_14/multiply_6/mul", "op": "Mul", "input": ["StatefulPartitionedCall/model_1/model/activation_14/activation_6/mul", "StatefulPartitionedCall/model_1/model/expanded_conv_5/depthwise/BatchNorm/batchnorm/add_1"], "attr": {"T": {"type": "DT_FLOAT"}, "_grappler_ArithmeticOptimizer_MinimizeBroadcasts": {"b": true}}}, {"name": "StatefulPartitionedCall/model_1/model/expanded_conv_5/squeeze_excite/AvgPool/Mean", "op": "Mean", "input": ["StatefulPartitionedCall/model_1/model/activation_14/multiply_6/mul", "StatefulPartitionedCall/model_1/model/expanded_conv_5/squeeze_excite/AvgPool/Mean/reduction_indices"], "attr": {"keep_dims": {"b": false}, "Tidx": {"type": "DT_INT32"}, "T": {"type": "DT_FLOAT"}}}, {"name": "StatefulPartitionedCall/model_1/model/reshape_3/Shape", "op": "Shape", "input": ["StatefulPartitionedCall/model_1/model/expanded_conv_5/squeeze_excite/AvgPool/Mean"], "attr": {"out_type": {"type": "DT_INT32"}, "T": {"type": "DT_FLOAT"}}}, {"name": "StatefulPartitionedCall/model_1/model/reshape_3/strided_slice", "op": "StridedSlice", "input": ["StatefulPartitionedCall/model_1/model/reshape_3/Shape", "StatefulPartitionedCall/model_1/model/reshape_3/strided_slice/stack", "StatefulPartitionedCall/model_1/model/reshape_3/strided_slice/stack_1", "StatefulPartitionedCall/model_1/model/reshape_3/strided_slice/stack_2"], "attr": {"shrink_axis_mask": {"i": "1"}, "ellipsis_mask": {"i": "0"}, "begin_mask": {"i": "0"}, "T": {"type": "DT_INT32"}, "Index": {"type": "DT_INT32"}, "new_axis_mask": {"i": "0"}, "end_mask": {"i": "0"}}}, {"name": "StatefulPartitionedCall/model_1/model/reshape_3/Reshape/shape", "op": "Pack", "input": ["StatefulPartitionedCall/model_1/model/reshape_3/strided_slice", "StatefulPartitionedCall/model_1/model/reshape_3/Reshape/shape/1", "StatefulPartitionedCall/model_1/model/reshape_3/Reshape/shape/2", "StatefulPartitionedCall/model_1/model/reshape_3/Reshape/shape/3"], "attr": {"axis": {"i": "0"}, "N": {"i": "4"}, "T": {"type": "DT_INT32"}}}, {"name": "StatefulPartitionedCall/model_1/model/reshape_3/Reshape", "op": "Reshape", "input": ["StatefulPartitionedCall/model_1/model/expanded_conv_5/squeeze_excite/AvgPool/Mean", "StatefulPartitionedCall/model_1/model/reshape_3/Reshape/shape"], "attr": {"T": {"type": "DT_FLOAT"}, "Tshape": {"type": "DT_INT32"}}}, {"name": "StatefulPartitionedCall/model_1/model/expanded_conv_5/squeeze_excite/Relu/Relu", "op": "_FusedConv2D", "input": ["StatefulPartitionedCall/model_1/model/reshape_3/Reshape", "StatefulPartitionedCall/model_1/model/expanded_conv_5/squeeze_excite/Conv/Conv2D/ReadVariableOp", "StatefulPartitionedCall/model_1/model/expanded_conv_5/squeeze_excite/Conv/BiasAdd/ReadVariableOp"], "device": "/device:CPU:0", "attr": {"padding": {"s": "U0FNRQ=="}, "use_cudnn_on_gpu": {"b": true}, "dilations": {"list": {"i": ["1", "1", "1", "1"]}}, "explicit_paddings": {"list": {}}, "epsilon": {"f": 0.0}, "T": {"type": "DT_FLOAT"}, "data_format": {"s": "TkhXQw=="}, "strides": {"list": {"i": ["1", "1", "1", "1"]}}, "fused_ops": {"list": {"s": ["Qmlhc0FkZA==", "UmVsdQ=="]}}, "num_args": {"i": "1"}}}, {"name": "StatefulPartitionedCall/model_1/model/expanded_conv_5/squeeze_excite/Conv_1/BiasAdd", "op": "_FusedConv2D", "input": ["StatefulPartitionedCall/model_1/model/expanded_conv_5/squeeze_excite/Relu/Relu", "StatefulPartitionedCall/model_1/model/expanded_conv_5/squeeze_excite/Conv_1/Conv2D/ReadVariableOp", "StatefulPartitionedCall/model_1/model/expanded_conv_5/squeeze_excite/Conv_1/BiasAdd/ReadVariableOp"], "device": "/device:CPU:0", "attr": {"data_format": {"s": "TkhXQw=="}, "T": {"type": "DT_FLOAT"}, "strides": {"list": {"i": ["1", "1", "1", "1"]}}, "dilations": {"list": {"i": ["1", "1", "1", "1"]}}, "epsilon": {"f": 0.0}, "padding": {"s": "U0FNRQ=="}, "use_cudnn_on_gpu": {"b": true}, "explicit_paddings": {"list": {}}, "num_args": {"i": "1"}, "fused_ops": {"list": {"s": ["Qmlhc0FkZA=="]}}}}, {"name": "StatefulPartitionedCall/model_1/model/activation_15/Mul", "op": "Mul", "input": ["StatefulPartitionedCall/model_1/model/expanded_conv_5/squeeze_excite/Conv_1/BiasAdd", "StatefulPartitionedCall/model_1/model/activation_15/Const"], "attr": {"T": {"type": "DT_FLOAT"}}}, {"name": "StatefulPartitionedCall/model_1/model/activation_15/Add", "op": "Add", "input": ["StatefulPartitionedCall/model_1/model/activation_15/Mul", "StatefulPartitionedCall/model_1/model/activation_15/Const_1"], "attr": {"T": {"type": "DT_FLOAT"}}}, {"name": "StatefulPartitionedCall/model_1/model/activation_15/clip_by_value/Minimum", "op": "Minimum", "input": ["StatefulPartitionedCall/model_1/model/activation_15/Add", "StatefulPartitionedCall/model_1/model/activation_15/clip_by_value/Minimum/y"], "attr": {"T": {"type": "DT_FLOAT"}}}, {"name": "StatefulPartitionedCall/model_1/model/activation_15/clip_by_value", "op": "Maximum", "input": ["StatefulPartitionedCall/model_1/model/activation_15/clip_by_value/Minimum", "StatefulPartitionedCall/model_1/model/activation_15/clip_by_value/y"], "attr": {"T": {"type": "DT_FLOAT"}}}, {"name": "StatefulPartitionedCall/model_1/model/expanded_conv_5/squeeze_excite/Mul/mul", "op": "Mul", "input": ["StatefulPartitionedCall/model_1/model/activation_14/multiply_6/mul", "StatefulPartitionedCall/model_1/model/activation_15/clip_by_value"], "attr": {"T": {"type": "DT_FLOAT"}}}, {"name": "StatefulPartitionedCall/model_1/model/expanded_conv_5/project/BatchNorm/batchnorm/mul_1", "op": "Conv2D", "input": ["StatefulPartitionedCall/model_1/model/expanded_conv_5/squeeze_excite/Mul/mul", "StatefulPartitionedCall/model_1/model/expanded_conv_5/project/Conv2D/merged_input"], "device": "/device:CPU:0", "attr": {"dilations": {"list": {"i": ["1", "1", "1", "1"]}}, "T": {"type": "DT_FLOAT"}, "data_format": {"s": "TkhXQw=="}, "use_cudnn_on_gpu": {"b": true}, "strides": {"list": {"i": ["1", "1", "1", "1"]}}, "explicit_paddings": {"list": {}}, "padding": {"s": "U0FNRQ=="}}}, {"name": "StatefulPartitionedCall/model_1/model/expanded_conv_5/project/BatchNorm/batchnorm/add_1", "op": "AddV2", "input": ["StatefulPartitionedCall/model_1/model/expanded_conv_5/project/BatchNorm/batchnorm/mul_1", "StatefulPartitionedCall/model_1/model/expanded_conv_5/project/BatchNorm/batchnorm/sub"], "attr": {"T": {"type": "DT_FLOAT"}}}, {"name": "StatefulPartitionedCall/model_1/model/expanded_conv_5/Add/add", "op": "AddV2", "input": ["StatefulPartitionedCall/model_1/model/expanded_conv_4/Add/add", "StatefulPartitionedCall/model_1/model/expanded_conv_5/project/BatchNorm/batchnorm/add_1"], "attr": {"T": {"type": "DT_FLOAT"}}}, {"name": "StatefulPartitionedCall/model_1/model/expanded_conv_6/expand/BatchNorm/batchnorm/mul_1", "op": "Conv2D", "input": ["StatefulPartitionedCall/model_1/model/expanded_conv_5/Add/add", "StatefulPartitionedCall/model_1/model/expanded_conv_6/expand/Conv2D/merged_input"], "device": "/device:CPU:0", "attr": {"T": {"type": "DT_FLOAT"}, "explicit_paddings": {"list": {}}, "use_cudnn_on_gpu": {"b": true}, "padding": {"s": "U0FNRQ=="}, "data_format": {"s": "TkhXQw=="}, "strides": {"list": {"i": ["1", "1", "1", "1"]}}, "dilations": {"list": {"i": ["1", "1", "1", "1"]}}}}, {"name": "StatefulPartitionedCall/model_1/model/expanded_conv_6/expand/BatchNorm/batchnorm/add_1", "op": "AddV2", "input": ["StatefulPartitionedCall/model_1/model/expanded_conv_6/expand/BatchNorm/batchnorm/mul_1", "StatefulPartitionedCall/model_1/model/expanded_conv_6/expand/BatchNorm/batchnorm/sub"], "attr": {"T": {"type": "DT_FLOAT"}}}, {"name": "StatefulPartitionedCall/model_1/model/activation_16/activation_7/add", "op": "AddV2", "input": ["StatefulPartitionedCall/model_1/model/expanded_conv_6/expand/BatchNorm/batchnorm/add_1", "StatefulPartitionedCall/model_1/model/activation_16/activation_7/add/y"], "attr": {"T": {"type": "DT_FLOAT"}}}, {"name": "StatefulPartitionedCall/model_1/model/activation_16/activation_7/re_lu_7/Relu6", "op": "Relu6", "input": ["StatefulPartitionedCall/model_1/model/activation_16/activation_7/add"], "attr": {"T": {"type": "DT_FLOAT"}}}, {"name": "StatefulPartitionedCall/model_1/model/activation_16/activation_7/mul", "op": "Mul", "input": ["StatefulPartitionedCall/model_1/model/activation_16/activation_7/mul/y", "StatefulPartitionedCall/model_1/model/activation_16/activation_7/re_lu_7/Relu6"], "attr": {"T": {"type": "DT_FLOAT"}, "_grappler_ArithmeticOptimizer_MinimizeBroadcasts": {"b": true}}}, {"name": "StatefulPartitionedCall/model_1/model/activation_16/multiply_7/mul", "op": "Mul", "input": ["StatefulPartitionedCall/model_1/model/activation_16/activation_7/mul", "StatefulPartitionedCall/model_1/model/expanded_conv_6/expand/BatchNorm/batchnorm/add_1"], "attr": {"_grappler_ArithmeticOptimizer_MinimizeBroadcasts": {"b": true}, "T": {"type": "DT_FLOAT"}}}, {"name": "StatefulPartitionedCall/model_1/model/expanded_conv_6/depthwise/Conv/depthwise/SpaceToBatchND", "op": "SpaceToBatchND", "input": ["StatefulPartitionedCall/model_1/model/activation_16/multiply_7/mul", "StatefulPartitionedCall/model_1/model/expanded_conv_6/depthwise/Conv/depthwise/SpaceToBatchND/block_shape", "StatefulPartitionedCall/model_1/model/expanded_conv_6/depthwise/Conv/depthwise/SpaceToBatchND/paddings"], "attr": {"T": {"type": "DT_FLOAT"}, "Tpaddings": {"type": "DT_INT32"}, "Tblock_shape": {"type": "DT_INT32"}}}, {"name": "StatefulPartitionedCall/model_1/model/expanded_conv_6/depthwise/Conv/depthwise", "op": "DepthwiseConv2dNative", "input": ["StatefulPartitionedCall/model_1/model/expanded_conv_6/depthwise/Conv/depthwise/SpaceToBatchND", "StatefulPartitionedCall/model_1/model/expanded_conv_6/depthwise/Conv/depthwise/ReadVariableOp"], "attr": {"strides": {"list": {"i": ["1", "1", "1", "1"]}}, "T": {"type": "DT_FLOAT"}, "explicit_paddings": {"list": {}}, "padding": {"s": "VkFMSUQ="}, "dilations": {"list": {"i": ["1", "1", "1", "1"]}}, "data_format": {"s": "TkhXQw=="}}}, {"name": "StatefulPartitionedCall/model_1/model/expanded_conv_6/depthwise/Conv/depthwise/BatchToSpaceND", "op": "BatchToSpaceND", "input": ["StatefulPartitionedCall/model_1/model/expanded_conv_6/depthwise/Conv/depthwise", "StatefulPartitionedCall/model_1/model/expanded_conv_6/depthwise/Conv/depthwise/BatchToSpaceND/block_shape", "StatefulPartitionedCall/model_1/model/expanded_conv_6/depthwise/Conv/depthwise/BatchToSpaceND/crops"], "attr": {"T": {"type": "DT_FLOAT"}, "Tblock_shape": {"type": "DT_INT32"}, "Tcrops": {"type": "DT_INT32"}}}, {"name": "StatefulPartitionedCall/model_1/model/expanded_conv_6/depthwise/BatchNorm/batchnorm/mul_1", "op": "Mul", "input": ["StatefulPartitionedCall/model_1/model/expanded_conv_6/depthwise/Conv/depthwise/BatchToSpaceND", "StatefulPartitionedCall/model_1/model/expanded_conv_6/depthwise/BatchNorm/batchnorm/mul"], "attr": {"T": {"type": "DT_FLOAT"}}}, {"name": "StatefulPartitionedCall/model_1/model/expanded_conv_6/depthwise/BatchNorm/batchnorm/add_1", "op": "AddV2", "input": ["StatefulPartitionedCall/model_1/model/expanded_conv_6/depthwise/BatchNorm/batchnorm/mul_1", "StatefulPartitionedCall/model_1/model/expanded_conv_6/depthwise/BatchNorm/batchnorm/sub"], "attr": {"T": {"type": "DT_FLOAT"}}}, {"name": "StatefulPartitionedCall/model_1/model/activation_17/activation_8/add", "op": "AddV2", "input": ["StatefulPartitionedCall/model_1/model/expanded_conv_6/depthwise/BatchNorm/batchnorm/add_1", "StatefulPartitionedCall/model_1/model/activation_17/activation_8/add/y"], "attr": {"T": {"type": "DT_FLOAT"}}}, {"name": "StatefulPartitionedCall/model_1/model/activation_17/activation_8/re_lu_8/Relu6", "op": "Relu6", "input": ["StatefulPartitionedCall/model_1/model/activation_17/activation_8/add"], "attr": {"T": {"type": "DT_FLOAT"}}}, {"name": "StatefulPartitionedCall/model_1/model/activation_17/activation_8/mul", "op": "Mul", "input": ["StatefulPartitionedCall/model_1/model/activation_17/activation_8/mul/y", "StatefulPartitionedCall/model_1/model/activation_17/activation_8/re_lu_8/Relu6"], "attr": {"_grappler_ArithmeticOptimizer_MinimizeBroadcasts": {"b": true}, "T": {"type": "DT_FLOAT"}}}, {"name": "StatefulPartitionedCall/model_1/model/activation_17/multiply_8/mul", "op": "Mul", "input": ["StatefulPartitionedCall/model_1/model/activation_17/activation_8/mul", "StatefulPartitionedCall/model_1/model/expanded_conv_6/depthwise/BatchNorm/batchnorm/add_1"], "attr": {"T": {"type": "DT_FLOAT"}, "_grappler_ArithmeticOptimizer_MinimizeBroadcasts": {"b": true}}}, {"name": "StatefulPartitionedCall/model_1/model/expanded_conv_6/squeeze_excite/AvgPool/Mean", "op": "Mean", "input": ["StatefulPartitionedCall/model_1/model/activation_17/multiply_8/mul", "StatefulPartitionedCall/model_1/model/expanded_conv_6/squeeze_excite/AvgPool/Mean/reduction_indices"], "attr": {"T": {"type": "DT_FLOAT"}, "keep_dims": {"b": false}, "Tidx": {"type": "DT_INT32"}}}, {"name": "StatefulPartitionedCall/model_1/model/reshape_4/Shape", "op": "Shape", "input": ["StatefulPartitionedCall/model_1/model/expanded_conv_6/squeeze_excite/AvgPool/Mean"], "attr": {"T": {"type": "DT_FLOAT"}, "out_type": {"type": "DT_INT32"}}}, {"name": "StatefulPartitionedCall/model_1/model/reshape_4/strided_slice", "op": "StridedSlice", "input": ["StatefulPartitionedCall/model_1/model/reshape_4/Shape", "StatefulPartitionedCall/model_1/model/reshape_4/strided_slice/stack", "StatefulPartitionedCall/model_1/model/reshape_4/strided_slice/stack_1", "StatefulPartitionedCall/model_1/model/reshape_4/strided_slice/stack_2"], "attr": {"ellipsis_mask": {"i": "0"}, "end_mask": {"i": "0"}, "shrink_axis_mask": {"i": "1"}, "Index": {"type": "DT_INT32"}, "new_axis_mask": {"i": "0"}, "T": {"type": "DT_INT32"}, "begin_mask": {"i": "0"}}}, {"name": "StatefulPartitionedCall/model_1/model/reshape_4/Reshape/shape", "op": "Pack", "input": ["StatefulPartitionedCall/model_1/model/reshape_4/strided_slice", "StatefulPartitionedCall/model_1/model/reshape_4/Reshape/shape/1", "StatefulPartitionedCall/model_1/model/reshape_4/Reshape/shape/2", "StatefulPartitionedCall/model_1/model/reshape_4/Reshape/shape/3"], "attr": {"N": {"i": "4"}, "T": {"type": "DT_INT32"}, "axis": {"i": "0"}}}, {"name": "StatefulPartitionedCall/model_1/model/reshape_4/Reshape", "op": "Reshape", "input": ["StatefulPartitionedCall/model_1/model/expanded_conv_6/squeeze_excite/AvgPool/Mean", "StatefulPartitionedCall/model_1/model/reshape_4/Reshape/shape"], "attr": {"Tshape": {"type": "DT_INT32"}, "T": {"type": "DT_FLOAT"}}}, {"name": "StatefulPartitionedCall/model_1/model/expanded_conv_6/squeeze_excite/Relu/Relu", "op": "_FusedConv2D", "input": ["StatefulPartitionedCall/model_1/model/reshape_4/Reshape", "StatefulPartitionedCall/model_1/model/expanded_conv_6/squeeze_excite/Conv/Conv2D/ReadVariableOp", "StatefulPartitionedCall/model_1/model/expanded_conv_6/squeeze_excite/Conv/BiasAdd/ReadVariableOp"], "device": "/device:CPU:0", "attr": {"explicit_paddings": {"list": {}}, "epsilon": {"f": 0.0}, "use_cudnn_on_gpu": {"b": true}, "dilations": {"list": {"i": ["1", "1", "1", "1"]}}, "num_args": {"i": "1"}, "T": {"type": "DT_FLOAT"}, "strides": {"list": {"i": ["1", "1", "1", "1"]}}, "data_format": {"s": "TkhXQw=="}, "fused_ops": {"list": {"s": ["Qmlhc0FkZA==", "UmVsdQ=="]}}, "padding": {"s": "U0FNRQ=="}}}, {"name": "StatefulPartitionedCall/model_1/model/expanded_conv_6/squeeze_excite/Conv_1/BiasAdd", "op": "_FusedConv2D", "input": ["StatefulPartitionedCall/model_1/model/expanded_conv_6/squeeze_excite/Relu/Relu", "StatefulPartitionedCall/model_1/model/expanded_conv_6/squeeze_excite/Conv_1/Conv2D/ReadVariableOp", "StatefulPartitionedCall/model_1/model/expanded_conv_6/squeeze_excite/Conv_1/BiasAdd/ReadVariableOp"], "device": "/device:CPU:0", "attr": {"epsilon": {"f": 0.0}, "T": {"type": "DT_FLOAT"}, "padding": {"s": "U0FNRQ=="}, "data_format": {"s": "TkhXQw=="}, "use_cudnn_on_gpu": {"b": true}, "num_args": {"i": "1"}, "strides": {"list": {"i": ["1", "1", "1", "1"]}}, "dilations": {"list": {"i": ["1", "1", "1", "1"]}}, "explicit_paddings": {"list": {}}, "fused_ops": {"list": {"s": ["Qmlhc0FkZA=="]}}}}, {"name": "StatefulPartitionedCall/model_1/model/activation_18/Mul", "op": "Mul", "input": ["StatefulPartitionedCall/model_1/model/expanded_conv_6/squeeze_excite/Conv_1/BiasAdd", "StatefulPartitionedCall/model_1/model/activation_18/Const"], "attr": {"T": {"type": "DT_FLOAT"}}}, {"name": "StatefulPartitionedCall/model_1/model/activation_18/Add", "op": "Add", "input": ["StatefulPartitionedCall/model_1/model/activation_18/Mul", "StatefulPartitionedCall/model_1/model/activation_18/Const_1"], "attr": {"T": {"type": "DT_FLOAT"}}}, {"name": "StatefulPartitionedCall/model_1/model/activation_18/clip_by_value/Minimum", "op": "Minimum", "input": ["StatefulPartitionedCall/model_1/model/activation_18/Add", "StatefulPartitionedCall/model_1/model/activation_18/clip_by_value/Minimum/y"], "attr": {"T": {"type": "DT_FLOAT"}}}, {"name": "StatefulPartitionedCall/model_1/model/activation_18/clip_by_value", "op": "Maximum", "input": ["StatefulPartitionedCall/model_1/model/activation_18/clip_by_value/Minimum", "StatefulPartitionedCall/model_1/model/activation_18/clip_by_value/y"], "attr": {"T": {"type": "DT_FLOAT"}}}, {"name": "StatefulPartitionedCall/model_1/model/expanded_conv_6/squeeze_excite/Mul/mul", "op": "Mul", "input": ["StatefulPartitionedCall/model_1/model/activation_17/multiply_8/mul", "StatefulPartitionedCall/model_1/model/activation_18/clip_by_value"], "attr": {"T": {"type": "DT_FLOAT"}}}, {"name": "StatefulPartitionedCall/model_1/model/expanded_conv_6/project/BatchNorm/batchnorm/mul_1", "op": "Conv2D", "input": ["StatefulPartitionedCall/model_1/model/expanded_conv_6/squeeze_excite/Mul/mul", "StatefulPartitionedCall/model_1/model/expanded_conv_6/project/Conv2D/merged_input"], "device": "/device:CPU:0", "attr": {"padding": {"s": "U0FNRQ=="}, "data_format": {"s": "TkhXQw=="}, "explicit_paddings": {"list": {}}, "dilations": {"list": {"i": ["1", "1", "1", "1"]}}, "use_cudnn_on_gpu": {"b": true}, "strides": {"list": {"i": ["1", "1", "1", "1"]}}, "T": {"type": "DT_FLOAT"}}}, {"name": "StatefulPartitionedCall/model_1/model/expanded_conv_6/project/BatchNorm/batchnorm/add_1", "op": "AddV2", "input": ["StatefulPartitionedCall/model_1/model/expanded_conv_6/project/BatchNorm/batchnorm/mul_1", "StatefulPartitionedCall/model_1/model/expanded_conv_6/project/BatchNorm/batchnorm/sub"], "attr": {"T": {"type": "DT_FLOAT"}}}, {"name": "StatefulPartitionedCall/model_1/model/expanded_conv_7/expand/BatchNorm/batchnorm/mul_1", "op": "Conv2D", "input": ["StatefulPartitionedCall/model_1/model/expanded_conv_6/project/BatchNorm/batchnorm/add_1", "StatefulPartitionedCall/model_1/model/expanded_conv_7/expand/Conv2D/merged_input"], "device": "/device:CPU:0", "attr": {"explicit_paddings": {"list": {}}, "padding": {"s": "U0FNRQ=="}, "strides": {"list": {"i": ["1", "1", "1", "1"]}}, "T": {"type": "DT_FLOAT"}, "use_cudnn_on_gpu": {"b": true}, "dilations": {"list": {"i": ["1", "1", "1", "1"]}}, "data_format": {"s": "TkhXQw=="}}}, {"name": "StatefulPartitionedCall/model_1/model/expanded_conv_7/expand/BatchNorm/batchnorm/add_1", "op": "AddV2", "input": ["StatefulPartitionedCall/model_1/model/expanded_conv_7/expand/BatchNorm/batchnorm/mul_1", "StatefulPartitionedCall/model_1/model/expanded_conv_7/expand/BatchNorm/batchnorm/sub"], "attr": {"T": {"type": "DT_FLOAT"}}}, {"name": "StatefulPartitionedCall/model_1/model/activation_19/activation_9/add", "op": "AddV2", "input": ["StatefulPartitionedCall/model_1/model/expanded_conv_7/expand/BatchNorm/batchnorm/add_1", "StatefulPartitionedCall/model_1/model/activation_19/activation_9/add/y"], "attr": {"T": {"type": "DT_FLOAT"}}}, {"name": "StatefulPartitionedCall/model_1/model/activation_19/activation_9/re_lu_9/Relu6", "op": "Relu6", "input": ["StatefulPartitionedCall/model_1/model/activation_19/activation_9/add"], "attr": {"T": {"type": "DT_FLOAT"}}}, {"name": "StatefulPartitionedCall/model_1/model/activation_19/activation_9/mul", "op": "Mul", "input": ["StatefulPartitionedCall/model_1/model/activation_19/activation_9/mul/y", "StatefulPartitionedCall/model_1/model/activation_19/activation_9/re_lu_9/Relu6"], "attr": {"_grappler_ArithmeticOptimizer_MinimizeBroadcasts": {"b": true}, "T": {"type": "DT_FLOAT"}}}, {"name": "StatefulPartitionedCall/model_1/model/activation_19/multiply_9/mul", "op": "Mul", "input": ["StatefulPartitionedCall/model_1/model/activation_19/activation_9/mul", "StatefulPartitionedCall/model_1/model/expanded_conv_7/expand/BatchNorm/batchnorm/add_1"], "attr": {"_grappler_ArithmeticOptimizer_MinimizeBroadcasts": {"b": true}, "T": {"type": "DT_FLOAT"}}}, {"name": "StatefulPartitionedCall/model_1/model/expanded_conv_7/depthwise/Conv/depthwise/SpaceToBatchND", "op": "SpaceToBatchND", "input": ["StatefulPartitionedCall/model_1/model/activation_19/multiply_9/mul", "StatefulPartitionedCall/model_1/model/expanded_conv_7/depthwise/Conv/depthwise/SpaceToBatchND/block_shape", "StatefulPartitionedCall/model_1/model/expanded_conv_7/depthwise/Conv/depthwise/SpaceToBatchND/paddings"], "attr": {"Tblock_shape": {"type": "DT_INT32"}, "T": {"type": "DT_FLOAT"}, "Tpaddings": {"type": "DT_INT32"}}}, {"name": "StatefulPartitionedCall/model_1/model/expanded_conv_7/depthwise/Conv/depthwise", "op": "DepthwiseConv2dNative", "input": ["StatefulPartitionedCall/model_1/model/expanded_conv_7/depthwise/Conv/depthwise/SpaceToBatchND", "StatefulPartitionedCall/model_1/model/expanded_conv_7/depthwise/Conv/depthwise/ReadVariableOp"], "attr": {"strides": {"list": {"i": ["1", "1", "1", "1"]}}, "explicit_paddings": {"list": {}}, "dilations": {"list": {"i": ["1", "1", "1", "1"]}}, "padding": {"s": "VkFMSUQ="}, "data_format": {"s": "TkhXQw=="}, "T": {"type": "DT_FLOAT"}}}, {"name": "StatefulPartitionedCall/model_1/model/expanded_conv_7/depthwise/Conv/depthwise/BatchToSpaceND", "op": "BatchToSpaceND", "input": ["StatefulPartitionedCall/model_1/model/expanded_conv_7/depthwise/Conv/depthwise", "StatefulPartitionedCall/model_1/model/expanded_conv_7/depthwise/Conv/depthwise/BatchToSpaceND/block_shape", "StatefulPartitionedCall/model_1/model/expanded_conv_7/depthwise/Conv/depthwise/BatchToSpaceND/crops"], "attr": {"T": {"type": "DT_FLOAT"}, "Tcrops": {"type": "DT_INT32"}, "Tblock_shape": {"type": "DT_INT32"}}}, {"name": "StatefulPartitionedCall/model_1/model/expanded_conv_7/depthwise/BatchNorm/batchnorm/mul_1", "op": "Mul", "input": ["StatefulPartitionedCall/model_1/model/expanded_conv_7/depthwise/Conv/depthwise/BatchToSpaceND", "StatefulPartitionedCall/model_1/model/expanded_conv_7/depthwise/BatchNorm/batchnorm/mul"], "attr": {"T": {"type": "DT_FLOAT"}}}, {"name": "StatefulPartitionedCall/model_1/model/expanded_conv_7/depthwise/BatchNorm/batchnorm/add_1", "op": "AddV2", "input": ["StatefulPartitionedCall/model_1/model/expanded_conv_7/depthwise/BatchNorm/batchnorm/mul_1", "StatefulPartitionedCall/model_1/model/expanded_conv_7/depthwise/BatchNorm/batchnorm/sub"], "attr": {"T": {"type": "DT_FLOAT"}}}, {"name": "StatefulPartitionedCall/model_1/model/activation_20/activation_10/add", "op": "AddV2", "input": ["StatefulPartitionedCall/model_1/model/expanded_conv_7/depthwise/BatchNorm/batchnorm/add_1", "StatefulPartitionedCall/model_1/model/activation_20/activation_10/add/y"], "attr": {"T": {"type": "DT_FLOAT"}}}, {"name": "StatefulPartitionedCall/model_1/model/activation_20/activation_10/re_lu_10/Relu6", "op": "Relu6", "input": ["StatefulPartitionedCall/model_1/model/activation_20/activation_10/add"], "attr": {"T": {"type": "DT_FLOAT"}}}, {"name": "StatefulPartitionedCall/model_1/model/activation_20/activation_10/mul", "op": "Mul", "input": ["StatefulPartitionedCall/model_1/model/activation_20/activation_10/mul/y", "StatefulPartitionedCall/model_1/model/activation_20/activation_10/re_lu_10/Relu6"], "attr": {"_grappler_ArithmeticOptimizer_MinimizeBroadcasts": {"b": true}, "T": {"type": "DT_FLOAT"}}}, {"name": "StatefulPartitionedCall/model_1/model/activation_20/multiply_10/mul", "op": "Mul", "input": ["StatefulPartitionedCall/model_1/model/activation_20/activation_10/mul", "StatefulPartitionedCall/model_1/model/expanded_conv_7/depthwise/BatchNorm/batchnorm/add_1"], "attr": {"T": {"type": "DT_FLOAT"}, "_grappler_ArithmeticOptimizer_MinimizeBroadcasts": {"b": true}}}, {"name": "StatefulPartitionedCall/model_1/model/expanded_conv_7/squeeze_excite/AvgPool/Mean", "op": "Mean", "input": ["StatefulPartitionedCall/model_1/model/activation_20/multiply_10/mul", "StatefulPartitionedCall/model_1/model/expanded_conv_7/squeeze_excite/AvgPool/Mean/reduction_indices"], "attr": {"keep_dims": {"b": false}, "T": {"type": "DT_FLOAT"}, "Tidx": {"type": "DT_INT32"}}}, {"name": "StatefulPartitionedCall/model_1/model/reshape_5/Shape", "op": "Shape", "input": ["StatefulPartitionedCall/model_1/model/expanded_conv_7/squeeze_excite/AvgPool/Mean"], "attr": {"T": {"type": "DT_FLOAT"}, "out_type": {"type": "DT_INT32"}}}, {"name": "StatefulPartitionedCall/model_1/model/reshape_5/strided_slice", "op": "StridedSlice", "input": ["StatefulPartitionedCall/model_1/model/reshape_5/Shape", "StatefulPartitionedCall/model_1/model/reshape_5/strided_slice/stack", "StatefulPartitionedCall/model_1/model/reshape_5/strided_slice/stack_1", "StatefulPartitionedCall/model_1/model/reshape_5/strided_slice/stack_2"], "attr": {"begin_mask": {"i": "0"}, "Index": {"type": "DT_INT32"}, "shrink_axis_mask": {"i": "1"}, "end_mask": {"i": "0"}, "ellipsis_mask": {"i": "0"}, "new_axis_mask": {"i": "0"}, "T": {"type": "DT_INT32"}}}, {"name": "StatefulPartitionedCall/model_1/model/reshape_5/Reshape/shape", "op": "Pack", "input": ["StatefulPartitionedCall/model_1/model/reshape_5/strided_slice", "StatefulPartitionedCall/model_1/model/reshape_5/Reshape/shape/1", "StatefulPartitionedCall/model_1/model/reshape_5/Reshape/shape/2", "StatefulPartitionedCall/model_1/model/reshape_5/Reshape/shape/3"], "attr": {"T": {"type": "DT_INT32"}, "axis": {"i": "0"}, "N": {"i": "4"}}}, {"name": "StatefulPartitionedCall/model_1/model/reshape_5/Reshape", "op": "Reshape", "input": ["StatefulPartitionedCall/model_1/model/expanded_conv_7/squeeze_excite/AvgPool/Mean", "StatefulPartitionedCall/model_1/model/reshape_5/Reshape/shape"], "attr": {"T": {"type": "DT_FLOAT"}, "Tshape": {"type": "DT_INT32"}}}, {"name": "StatefulPartitionedCall/model_1/model/expanded_conv_7/squeeze_excite/Relu/Relu", "op": "_FusedConv2D", "input": ["StatefulPartitionedCall/model_1/model/reshape_5/Reshape", "StatefulPartitionedCall/model_1/model/expanded_conv_7/squeeze_excite/Conv/Conv2D/ReadVariableOp", "StatefulPartitionedCall/model_1/model/expanded_conv_7/squeeze_excite/Conv/BiasAdd/ReadVariableOp"], "device": "/device:CPU:0", "attr": {"strides": {"list": {"i": ["1", "1", "1", "1"]}}, "T": {"type": "DT_FLOAT"}, "padding": {"s": "U0FNRQ=="}, "data_format": {"s": "TkhXQw=="}, "use_cudnn_on_gpu": {"b": true}, "epsilon": {"f": 0.0}, "dilations": {"list": {"i": ["1", "1", "1", "1"]}}, "explicit_paddings": {"list": {}}, "num_args": {"i": "1"}, "fused_ops": {"list": {"s": ["Qmlhc0FkZA==", "UmVsdQ=="]}}}}, {"name": "StatefulPartitionedCall/model_1/model/expanded_conv_7/squeeze_excite/Conv_1/BiasAdd", "op": "_FusedConv2D", "input": ["StatefulPartitionedCall/model_1/model/expanded_conv_7/squeeze_excite/Relu/Relu", "StatefulPartitionedCall/model_1/model/expanded_conv_7/squeeze_excite/Conv_1/Conv2D/ReadVariableOp", "StatefulPartitionedCall/model_1/model/expanded_conv_7/squeeze_excite/Conv_1/BiasAdd/ReadVariableOp"], "device": "/device:CPU:0", "attr": {"num_args": {"i": "1"}, "data_format": {"s": "TkhXQw=="}, "strides": {"list": {"i": ["1", "1", "1", "1"]}}, "use_cudnn_on_gpu": {"b": true}, "padding": {"s": "U0FNRQ=="}, "epsilon": {"f": 0.0}, "dilations": {"list": {"i": ["1", "1", "1", "1"]}}, "T": {"type": "DT_FLOAT"}, "explicit_paddings": {"list": {}}, "fused_ops": {"list": {"s": ["Qmlhc0FkZA=="]}}}}, {"name": "StatefulPartitionedCall/model_1/model/activation_21/Mul", "op": "Mul", "input": ["StatefulPartitionedCall/model_1/model/expanded_conv_7/squeeze_excite/Conv_1/BiasAdd", "StatefulPartitionedCall/model_1/model/activation_21/Const"], "attr": {"T": {"type": "DT_FLOAT"}}}, {"name": "StatefulPartitionedCall/model_1/model/activation_21/Add", "op": "Add", "input": ["StatefulPartitionedCall/model_1/model/activation_21/Mul", "StatefulPartitionedCall/model_1/model/activation_21/Const_1"], "attr": {"T": {"type": "DT_FLOAT"}}}, {"name": "StatefulPartitionedCall/model_1/model/activation_21/clip_by_value/Minimum", "op": "Minimum", "input": ["StatefulPartitionedCall/model_1/model/activation_21/Add", "StatefulPartitionedCall/model_1/model/activation_21/clip_by_value/Minimum/y"], "attr": {"T": {"type": "DT_FLOAT"}}}, {"name": "StatefulPartitionedCall/model_1/model/activation_21/clip_by_value", "op": "Maximum", "input": ["StatefulPartitionedCall/model_1/model/activation_21/clip_by_value/Minimum", "StatefulPartitionedCall/model_1/model/activation_21/clip_by_value/y"], "attr": {"T": {"type": "DT_FLOAT"}}}, {"name": "StatefulPartitionedCall/model_1/model/expanded_conv_7/squeeze_excite/Mul/mul", "op": "Mul", "input": ["StatefulPartitionedCall/model_1/model/activation_20/multiply_10/mul", "StatefulPartitionedCall/model_1/model/activation_21/clip_by_value"], "attr": {"T": {"type": "DT_FLOAT"}}}, {"name": "StatefulPartitionedCall/model_1/model/expanded_conv_7/project/BatchNorm/batchnorm/mul_1", "op": "Conv2D", "input": ["StatefulPartitionedCall/model_1/model/expanded_conv_7/squeeze_excite/Mul/mul", "StatefulPartitionedCall/model_1/model/expanded_conv_7/project/Conv2D/merged_input"], "device": "/device:CPU:0", "attr": {"use_cudnn_on_gpu": {"b": true}, "padding": {"s": "U0FNRQ=="}, "explicit_paddings": {"list": {}}, "strides": {"list": {"i": ["1", "1", "1", "1"]}}, "T": {"type": "DT_FLOAT"}, "dilations": {"list": {"i": ["1", "1", "1", "1"]}}, "data_format": {"s": "TkhXQw=="}}}, {"name": "StatefulPartitionedCall/model_1/model/expanded_conv_7/project/BatchNorm/batchnorm/add_1", "op": "AddV2", "input": ["StatefulPartitionedCall/model_1/model/expanded_conv_7/project/BatchNorm/batchnorm/mul_1", "StatefulPartitionedCall/model_1/model/expanded_conv_7/project/BatchNorm/batchnorm/sub"], "attr": {"T": {"type": "DT_FLOAT"}}}, {"name": "StatefulPartitionedCall/model_1/model/expanded_conv_7/Add/add", "op": "AddV2", "input": ["StatefulPartitionedCall/model_1/model/expanded_conv_6/project/BatchNorm/batchnorm/add_1", "StatefulPartitionedCall/model_1/model/expanded_conv_7/project/BatchNorm/batchnorm/add_1"], "attr": {"T": {"type": "DT_FLOAT"}}}, {"name": "StatefulPartitionedCall/model_1/model/expanded_conv_8/expand/BatchNorm/batchnorm/mul_1", "op": "Conv2D", "input": ["StatefulPartitionedCall/model_1/model/expanded_conv_7/Add/add", "StatefulPartitionedCall/model_1/model/expanded_conv_8/expand/Conv2D/merged_input"], "device": "/device:CPU:0", "attr": {"strides": {"list": {"i": ["1", "1", "1", "1"]}}, "explicit_paddings": {"list": {}}, "padding": {"s": "U0FNRQ=="}, "data_format": {"s": "TkhXQw=="}, "dilations": {"list": {"i": ["1", "1", "1", "1"]}}, "T": {"type": "DT_FLOAT"}, "use_cudnn_on_gpu": {"b": true}}}, {"name": "StatefulPartitionedCall/model_1/model/expanded_conv_8/expand/BatchNorm/batchnorm/add_1", "op": "AddV2", "input": ["StatefulPartitionedCall/model_1/model/expanded_conv_8/expand/BatchNorm/batchnorm/mul_1", "StatefulPartitionedCall/model_1/model/expanded_conv_8/expand/BatchNorm/batchnorm/sub"], "attr": {"T": {"type": "DT_FLOAT"}}}, {"name": "StatefulPartitionedCall/model_1/model/activation_22/activation_11/add", "op": "AddV2", "input": ["StatefulPartitionedCall/model_1/model/expanded_conv_8/expand/BatchNorm/batchnorm/add_1", "StatefulPartitionedCall/model_1/model/activation_22/activation_11/add/y"], "attr": {"T": {"type": "DT_FLOAT"}}}, {"name": "StatefulPartitionedCall/model_1/model/activation_22/activation_11/re_lu_11/Relu6", "op": "Relu6", "input": ["StatefulPartitionedCall/model_1/model/activation_22/activation_11/add"], "attr": {"T": {"type": "DT_FLOAT"}}}, {"name": "StatefulPartitionedCall/model_1/model/activation_22/activation_11/mul", "op": "Mul", "input": ["StatefulPartitionedCall/model_1/model/activation_22/activation_11/mul/y", "StatefulPartitionedCall/model_1/model/activation_22/activation_11/re_lu_11/Relu6"], "attr": {"_grappler_ArithmeticOptimizer_MinimizeBroadcasts": {"b": true}, "T": {"type": "DT_FLOAT"}}}, {"name": "StatefulPartitionedCall/model_1/model/activation_22/multiply_11/mul", "op": "Mul", "input": ["StatefulPartitionedCall/model_1/model/activation_22/activation_11/mul", "StatefulPartitionedCall/model_1/model/expanded_conv_8/expand/BatchNorm/batchnorm/add_1"], "attr": {"_grappler_ArithmeticOptimizer_MinimizeBroadcasts": {"b": true}, "T": {"type": "DT_FLOAT"}}}, {"name": "StatefulPartitionedCall/model_1/model/expanded_conv_8/depthwise/Conv/depthwise/SpaceToBatchND", "op": "SpaceToBatchND", "input": ["StatefulPartitionedCall/model_1/model/activation_22/multiply_11/mul", "StatefulPartitionedCall/model_1/model/expanded_conv_8/depthwise/Conv/depthwise/SpaceToBatchND/block_shape", "StatefulPartitionedCall/model_1/model/expanded_conv_8/depthwise/Conv/depthwise/SpaceToBatchND/paddings"], "attr": {"Tblock_shape": {"type": "DT_INT32"}, "Tpaddings": {"type": "DT_INT32"}, "T": {"type": "DT_FLOAT"}}}, {"name": "StatefulPartitionedCall/model_1/model/expanded_conv_8/depthwise/Conv/depthwise", "op": "DepthwiseConv2dNative", "input": ["StatefulPartitionedCall/model_1/model/expanded_conv_8/depthwise/Conv/depthwise/SpaceToBatchND", "StatefulPartitionedCall/model_1/model/expanded_conv_8/depthwise/Conv/depthwise/ReadVariableOp"], "attr": {"strides": {"list": {"i": ["1", "1", "1", "1"]}}, "data_format": {"s": "TkhXQw=="}, "explicit_paddings": {"list": {}}, "dilations": {"list": {"i": ["1", "1", "1", "1"]}}, "T": {"type": "DT_FLOAT"}, "padding": {"s": "VkFMSUQ="}}}, {"name": "StatefulPartitionedCall/model_1/model/expanded_conv_8/depthwise/Conv/depthwise/BatchToSpaceND", "op": "BatchToSpaceND", "input": ["StatefulPartitionedCall/model_1/model/expanded_conv_8/depthwise/…
s_mask": {"i": "0"}, "ellipsis_mask": {"i": "0"}}}, {"name": "StatefulPartitionedCall/model_1/model/reshape_8/Reshape/shape", "op": "Pack", "input": ["StatefulPartitionedCall/model_1/model/reshape_8/strided_slice", "StatefulPartitionedCall/model_1/model/reshape_8/Reshape/shape/1", "StatefulPartitionedCall/model_1/model/reshape_8/Reshape/shape/2", "StatefulPartitionedCall/model_1/model/reshape_8/Reshape/shape/3"], "attr": {"T": {"type": "DT_INT32"}, "N": {"i": "4"}, "axis": {"i": "0"}}}, {"name": "StatefulPartitionedCall/model_1/model/reshape_8/Reshape", "op": "Reshape", "input": ["StatefulPartitionedCall/model_1/model/expanded_conv_10/squeeze_excite/AvgPool/Mean", "StatefulPartitionedCall/model_1/model/reshape_8/Reshape/shape"], "attr": {"T": {"type": "DT_FLOAT"}, "Tshape": {"type": "DT_INT32"}}}, {"name": "StatefulPartitionedCall/model_1/model/expanded_conv_10/squeeze_excite/Relu/Relu", "op": "_FusedConv2D", "input": ["StatefulPartitionedCall/model_1/model/reshape_8/Reshape", "StatefulPartitionedCall/model_1/model/expanded_conv_10/squeeze_excite/Conv/Conv2D/ReadVariableOp", "StatefulPartitionedCall/model_1/model/expanded_conv_10/squeeze_excite/Conv/BiasAdd/ReadVariableOp"], "device": "/device:CPU:0", "attr": {"use_cudnn_on_gpu": {"b": true}, "explicit_paddings": {"list": {}}, "strides": {"list": {"i": ["1", "1", "1", "1"]}}, "num_args": {"i": "1"}, "data_format": {"s": "TkhXQw=="}, "fused_ops": {"list": {"s": ["Qmlhc0FkZA==", "UmVsdQ=="]}}, "T": {"type": "DT_FLOAT"}, "dilations": {"list": {"i": ["1", "1", "1", "1"]}}, "epsilon": {"f": 0.0}, "padding": {"s": "U0FNRQ=="}}}, {"name": "StatefulPartitionedCall/model_1/model/expanded_conv_10/squeeze_excite/Conv_1/BiasAdd", "op": "_FusedConv2D", "input": ["StatefulPartitionedCall/model_1/model/expanded_conv_10/squeeze_excite/Relu/Relu", "StatefulPartitionedCall/model_1/model/expanded_conv_10/squeeze_excite/Conv_1/Conv2D/ReadVariableOp", "StatefulPartitionedCall/model_1/model/expanded_conv_10/squeeze_excite/Conv_1/BiasAdd/ReadVariableOp"], "device": "/device:CPU:0", "attr": {"num_args": {"i": "1"}, "T": {"type": "DT_FLOAT"}, "epsilon": {"f": 0.0}, "data_format": {"s": "TkhXQw=="}, "padding": {"s": "U0FNRQ=="}, "fused_ops": {"list": {"s": ["Qmlhc0FkZA=="]}}, "explicit_paddings": {"list": {}}, "dilations": {"list": {"i": ["1", "1", "1", "1"]}}, "use_cudnn_on_gpu": {"b": true}, "strides": {"list": {"i": ["1", "1", "1", "1"]}}}}, {"name": "StatefulPartitionedCall/model_1/model/activation_30/Mul", "op": "Mul", "input": ["StatefulPartitionedCall/model_1/model/expanded_conv_10/squeeze_excite/Conv_1/BiasAdd", "StatefulPartitionedCall/model_1/model/activation_30/Const"], "attr": {"T": {"type": "DT_FLOAT"}}}, {"name": "StatefulPartitionedCall/model_1/model/activation_30/Add", "op": "Add", "input": ["StatefulPartitionedCall/model_1/model/activation_30/Mul", "StatefulPartitionedCall/model_1/model/activation_30/Const_1"], "attr": {"T": {"type": "DT_FLOAT"}}}, {"name": "StatefulPartitionedCall/model_1/model/activation_30/clip_by_value/Minimum", "op": "Minimum", "input": ["StatefulPartitionedCall/model_1/model/activation_30/Add", "StatefulPartitionedCall/model_1/model/activation_30/clip_by_value/Minimum/y"], "attr": {"T": {"type": "DT_FLOAT"}}}, {"name": "StatefulPartitionedCall/model_1/model/activation_30/clip_by_value", "op": "Maximum", "input": ["StatefulPartitionedCall/model_1/model/activation_30/clip_by_value/Minimum", "StatefulPartitionedCall/model_1/model/activation_30/clip_by_value/y"], "attr": {"T": {"type": "DT_FLOAT"}}}, {"name": "StatefulPartitionedCall/model_1/model/expanded_conv_10/squeeze_excite/Mul/mul", "op": "Mul", "input": ["StatefulPartitionedCall/model_1/model/activation_29/multiply_16/mul", "StatefulPartitionedCall/model_1/model/activation_30/clip_by_value"], "attr": {"T": {"type": "DT_FLOAT"}}}, {"name": "StatefulPartitionedCall/model_1/model/expanded_conv_10/project/BatchNorm/batchnorm/mul_1", "op": "Conv2D", "input": ["StatefulPartitionedCall/model_1/model/expanded_conv_10/squeeze_excite/Mul/mul", "StatefulPartitionedCall/model_1/model/expanded_conv_10/project/Conv2D/merged_input"], "device": "/device:CPU:0", "attr": {"dilations": {"list": {"i": ["1", "1", "1", "1"]}}, "strides": {"list": {"i": ["1", "1", "1", "1"]}}, "explicit_paddings": {"list": {}}, "use_cudnn_on_gpu": {"b": true}, "T": {"type": "DT_FLOAT"}, "padding": {"s": "U0FNRQ=="}, "data_format": {"s": "TkhXQw=="}}}, {"name": "StatefulPartitionedCall/model_1/model/expanded_conv_10/project/BatchNorm/batchnorm/add_1", "op": "AddV2", "input": ["StatefulPartitionedCall/model_1/model/expanded_conv_10/project/BatchNorm/batchnorm/mul_1", "StatefulPartitionedCall/model_1/model/expanded_conv_10/project/BatchNorm/batchnorm/sub"], "attr": {"T": {"type": "DT_FLOAT"}}}, {"name": "StatefulPartitionedCall/model_1/model/expanded_conv_10/Add/add", "op": "AddV2", "input": ["StatefulPartitionedCall/model_1/model/expanded_conv_9/Add/add", "StatefulPartitionedCall/model_1/model/expanded_conv_10/project/BatchNorm/batchnorm/add_1"], "attr": {"T": {"type": "DT_FLOAT"}}}, {"name": "StatefulPartitionedCall/model_1/model/aspp0_BN/batchnorm/mul_1", "op": "Conv2D", "input": ["StatefulPartitionedCall/model_1/model/expanded_conv_10/Add/add", "StatefulPartitionedCall/model_1/model/aspp0/Conv2D/merged_input"], "device": "/device:CPU:0", "attr": {"strides": {"list": {"i": ["1", "1", "1", "1"]}}, "dilations": {"list": {"i": ["1", "1", "1", "1"]}}, "use_cudnn_on_gpu": {"b": true}, "explicit_paddings": {"list": {}}, "padding": {"s": "U0FNRQ=="}, "data_format": {"s": "TkhXQw=="}, "T": {"type": "DT_FLOAT"}}}, {"name": "StatefulPartitionedCall/model_1/model/average_pooling2d/AvgPool", "op": "AvgPool", "input": ["StatefulPartitionedCall/model_1/model/expanded_conv_10/Add/add"], "attr": {"data_format": {"s": "TkhXQw=="}, "ksize": {"list": {"i": ["1", "16", "16", "1"]}}, "padding": {"s": "VkFMSUQ="}, "T": {"type": "DT_FLOAT"}, "strides": {"list": {"i": ["1", "16", "16", "1"]}}}}, {"name": "StatefulPartitionedCall/model_1/model/aspp0_BN/batchnorm/add_1", "op": "AddV2", "input": ["StatefulPartitionedCall/model_1/model/aspp0_BN/batchnorm/mul_1", "StatefulPartitionedCall/model_1/model/aspp0_BN/batchnorm/sub"], "attr": {"T": {"type": "DT_FLOAT"}}}, {"name": "StatefulPartitionedCall/model_1/model/image_pooling/Conv2D", "op": "Conv2D", "input": ["StatefulPartitionedCall/model_1/model/average_pooling2d/AvgPool", "StatefulPartitionedCall/model_1/model/image_pooling/Conv2D/ReadVariableOp"], "device": "/device:CPU:0", "attr": {"T": {"type": "DT_FLOAT"}, "dilations": {"list": {"i": ["1", "1", "1", "1"]}}, "data_format": {"s": "TkhXQw=="}, "use_cudnn_on_gpu": {"b": true}, "strides": {"list": {"i": ["1", "1", "1", "1"]}}, "padding": {"s": "U0FNRQ=="}, "explicit_paddings": {"list": {}}}}, {"name": "StatefulPartitionedCall/model_1/model/aspp0_activation/Relu", "op": "Relu", "input": ["StatefulPartitionedCall/model_1/model/aspp0_BN/batchnorm/add_1"], "attr": {"T": {"type": "DT_FLOAT"}}}, {"name": "StatefulPartitionedCall/model_1/model/image_pooling_BN/batchnorm/mul_1", "op": "Mul", "input": ["StatefulPartitionedCall/model_1/model/image_pooling/Conv2D", "StatefulPartitionedCall/model_1/model/image_pooling_BN/batchnorm/mul"], "attr": {"T": {"type": "DT_FLOAT"}}}, {"name": "StatefulPartitionedCall/model_1/model/flatten/Reshape", "op": "Reshape", "input": ["StatefulPartitionedCall/model_1/model/image_pooling/Conv2D", "StatefulPartitionedCall/model_1/model/flatten/Const"], "attr": {"Tshape": {"type": "DT_INT32"}, "T": {"type": "DT_FLOAT"}}}, {"name": "StatefulPartitionedCall/model_1/model/image_pooling_BN/batchnorm/add_1", "op": "AddV2", "input": ["StatefulPartitionedCall/model_1/model/image_pooling_BN/batchnorm/mul_1", "StatefulPartitionedCall/model_1/model/image_pooling_BN/batchnorm/sub"], "attr": {"T": {"type": "DT_FLOAT"}}}, {"name": "StatefulPartitionedCall/model_1/model/tags/BiasAdd", "op": "_FusedMatMul", "input": ["StatefulPartitionedCall/model_1/model/flatten/Reshape", "StatefulPartitionedCall/model_1/model/tags/MatMul/ReadVariableOp", "StatefulPartitionedCall/model_1/model/tags/BiasAdd/ReadVariableOp"], "device": "/device:CPU:0", "attr": {"transpose_a": {"b": false}, "fused_ops": {"list": {"s": ["Qmlhc0FkZA=="]}}, "num_args": {"i": "1"}, "epsilon": {"f": 0.0}, "transpose_b": {"b": false}, "T": {"type": "DT_FLOAT"}}}, {"name": "StatefulPartitionedCall/model_1/model/re_lu/Relu", "op": "Relu", "input": ["StatefulPartitionedCall/model_1/model/image_pooling_BN/batchnorm/add_1"], "attr": {"T": {"type": "DT_FLOAT"}}}, {"name": "StatefulPartitionedCall/model_1/model/tags/Sigmoid", "op": "Sigmoid", "input": ["StatefulPartitionedCall/model_1/model/tags/BiasAdd"], "attr": {"T": {"type": "DT_FLOAT"}}}, {"name": "StatefulPartitionedCall/model_1/model/aspp_resize/resize/ResizeBilinear", "op": "ResizeBilinear", "input": ["StatefulPartitionedCall/model_1/model/re_lu/Relu", "StatefulPartitionedCall/model_1/model/aspp_resize/resize/size"], "attr": {"T": {"type": "DT_FLOAT"}, "half_pixel_centers": {"b": true}, "align_corners": {"b": false}}}, {"name": "Identity_1", "op": "Identity", "input": ["StatefulPartitionedCall/model_1/model/tags/Sigmoid"], "attr": {"T": {"type": "DT_FLOAT"}}}, {"name": "StatefulPartitionedCall/model_1/model/concatenate/concat", "op": "ConcatV2", "input": ["StatefulPartitionedCall/model_1/model/aspp_resize/resize/ResizeBilinear", "StatefulPartitionedCall/model_1/model/aspp0_activation/Relu", "StatefulPartitionedCall/model_1/model/concatenate/concat/axis"], "attr": {"T": {"type": "DT_FLOAT"}, "N": {"i": "2"}, "Tidx": {"type": "DT_INT32"}}}, {"name": "StatefulPartitionedCall/model_1/model/concat_projection_BN/batchnorm/mul_1", "op": "Conv2D", "input": ["StatefulPartitionedCall/model_1/model/concatenate/concat", "StatefulPartitionedCall/model_1/model/concat_projection/Conv2D/merged_input"], "device": "/device:CPU:0", "attr": {"dilations": {"list": {"i": ["1", "1", "1", "1"]}}, "data_format": {"s": "TkhXQw=="}, "padding": {"s": "U0FNRQ=="}, "strides": {"list": {"i": ["1", "1", "1", "1"]}}, "T": {"type": "DT_FLOAT"}, "use_cudnn_on_gpu": {"b": true}, "explicit_paddings": {"list": {}}}}, {"name": "StatefulPartitionedCall/model_1/model/concat_projection_BN/batchnorm/add_1", "op": "AddV2", "input": ["StatefulPartitionedCall/model_1/model/concat_projection_BN/batchnorm/mul_1", "StatefulPartitionedCall/model_1/model/concat_projection_BN/batchnorm/sub"], "attr": {"T": {"type": "DT_FLOAT"}}}, {"name": "StatefulPartitionedCall/model_1/model/re_lu_1/Relu", "op": "Relu", "input": ["StatefulPartitionedCall/model_1/model/concat_projection_BN/batchnorm/add_1"], "attr": {"T": {"type": "DT_FLOAT"}}}, {"name": "StatefulPartitionedCall/model_1/model/logits_semantic/BiasAdd", "op": "_FusedConv2D", "input": ["StatefulPartitionedCall/model_1/model/re_lu_1/Relu", "StatefulPartitionedCall/model_1/model/logits_semantic/Conv2D/ReadVariableOp", "StatefulPartitionedCall/model_1/model/logits_semantic/BiasAdd/ReadVariableOp"], "device": "/device:CPU:0", "attr": {"use_cudnn_on_gpu": {"b": true}, "num_args": {"i": "1"}, "epsilon": {"f": 0.0}, "T": {"type": "DT_FLOAT"}, "padding": {"s": "U0FNRQ=="}, "strides": {"list": {"i": ["1", "1", "1", "1"]}}, "explicit_paddings": {"list": {}}, "dilations": {"list": {"i": ["1", "1", "1", "1"]}}, "data_format": {"s": "TkhXQw=="}, "fused_ops": {"list": {"s": ["Qmlhc0FkZA=="]}}}}, {"name": "StatefulPartitionedCall/model_1/model/pred_resize/resize/ResizeBilinear", "op": "ResizeBilinear", "input": ["StatefulPartitionedCall/model_1/model/logits_semantic/BiasAdd", "StatefulPartitionedCall/model_1/model/pred_resize/resize/size"], "attr": {"align_corners": {"b": false}, "half_pixel_centers": {"b": true}, "T": {"type": "DT_FLOAT"}}}, {"name": "StatefulPartitionedCall/model_1/model/mask/Sigmoid", "op": "Sigmoid", "input": ["StatefulPartitionedCall/model_1/model/pred_resize/resize/ResizeBilinear"], "attr": {"T": {"type": "DT_FLOAT"}}}, {"name": "Identity", "op": "Identity", "input": ["StatefulPartitionedCall/model_1/model/mask/Sigmoid"], "attr": {"T": {"type": "DT_FLOAT"}}}], "library": {}, "versions": {"producer": 561}}, "weightsManifest": [{"paths": ["group1-shard1of2.bin", "group1-shard2of2.bin"], "weights": [{"name": "StatefulPartitionedCall/model_1/model/image_pooling_BN/batchnorm/mul", "shape": [256], "dtype": "float32"}, {"name": "StatefulPartitionedCall/model_1/model/image_pooling_BN/batchnorm/sub", "shape": [256], "dtype": "float32"}, {"name": "StatefulPartitionedCall/model_1/model/aspp_resize/resize/size", "shape": [2], "dtype": "int32"}, {"name": "StatefulPartitionedCall/model_1/model/aspp0/Conv2D/merged_input", "shape": [1, 1, 96, 256], "dtype": "float32"}, {"name": "StatefulPartitionedCall/model_1/model/aspp0_BN/batchnorm/sub", "shape": [256], "dtype": "float32"}, {"name": "StatefulPartitionedCall/model_1/model/concatenate/concat/axis", "shape": [], "dtype": "int32"}, {"name": "StatefulPartitionedCall/model_1/model/concat_projection/Conv2D/merged_input", "shape": [1, 1, 512, 256], "dtype": "float32"}, {"name": "StatefulPartitionedCall/model_1/model/concat_projection_BN/batchnorm/sub", "shape": [256], "dtype": "float32"}, {"name": "StatefulPartitionedCall/model_1/model/logits_semantic/Conv2D/ReadVariableOp", "shape": [1, 1, 256, 1], "dtype": "float32"}, {"name": "StatefulPartitionedCall/model_1/model/logits_semantic/BiasAdd/ReadVariableOp", "shape": [1], "dtype": "float32"}, {"name": "StatefulPartitionedCall/model_1/model/pred_resize/resize/size", "shape": [2], "dtype": "int32"}, {"name": "StatefulPartitionedCall/model_1/model/activation_29/activation_16/mul/y", "shape": [], "dtype": "float32"}, {"name": "StatefulPartitionedCall/model_1/model/activation_29/activation_16/add/y", "shape": [], "dtype": "float32"}, {"name": "StatefulPartitionedCall/model_1/model/activation_28/activation_15/mul/y", "shape": [], "dtype": "float32"}, {"name": "StatefulPartitionedCall/model_1/model/activation_28/activation_15/add/y", "shape": [], "dtype": "float32"}, {"name": "StatefulPartitionedCall/model_1/model/activation_26/activation_14/mul/y", "shape": [], "dtype": "float32"}, {"name": "StatefulPartitionedCall/model_1/model/activation_26/activation_14/add/y", "shape": [], "dtype": "float32"}, {"name": "StatefulPartitionedCall/model_1/model/activation_25/activation_13/mul/y", "shape": [], "dtype": "float32"}, {"name": "StatefulPartitionedCall/model_1/model/activation_25/activation_13/add/y", "shape": [], "dtype": "float32"}, {"name": "StatefulPartitionedCall/model_1/model/activation_23/activation_12/mul/y", "shape": [], "dtype": "float32"}, {"name": "StatefulPartitionedCall/model_1/model/activation_23/activation_12/add/y", "shape": [], "dtype": "float32"}, {"name": "StatefulPartitionedCall/model_1/model/activation_22/activation_11/mul/y", "shape": [], "dtype": "float32"}, {"name": "StatefulPartitionedCall/model_1/model/activation_22/activation_11/add/y", "shape": [], "dtype": "float32"}, {"name": "StatefulPartitionedCall/model_1/model/activation_20/activation_10/mul/y", "shape": [], "dtype": "float32"}, {"name": "StatefulPartitionedCall/model_1/model/activation_20/activation_10/add/y", "shape": [], "dtype": "float32"}, {"name": "StatefulPartitionedCall/model_1/model/activation_19/activation_9/mul/y", "shape": [], "dtype": "float32"}, {"name": "StatefulPartitionedCall/model_1/model/activation_19/activation_9/add/y", "shape": [], "dtype": "float32"}, {"name": "StatefulPartitionedCall/model_1/model/activation_17/activation_8/mul/y", "shape": [], "dtype": "float32"}, {"name": "StatefulPartitionedCall/model_1/model/activation_17/activation_8/add/y", "shape": [], "dtype": "float32"}, {"name": "StatefulPartitionedCall/model_1/model/activation_16/activation_7/mul/y", "shape": [], "dtype": "float32"}, {"name": "StatefulPartitionedCall/model_1/model/activation_16/activation_7/add/y", "shape": [], "dtype": "float32"}, {"name": "StatefulPartitionedCall/model_1/model/activation_14/activation_6/mul/y", "shape": [], "dtype": "float32"}, {"name": "StatefulPartitionedCall/model_1/model/activation_14/activation_6/add/y", "shape": [], "dtype": "float32"}, {"name": "StatefulPartitionedCall/model_1/model/activation_13/activation_5/mul/y", "shape": [], "dtype": "float32"}, {"name": "StatefulPartitionedCall/model_1/model/activation_13/activation_5/add/y", "shape": [], "dtype": "float32"}, {"name": "StatefulPartitionedCall/model_1/model/activation_11/activation_4/mul/y", "shape": [], "dtype": "float32"}, {"name": "StatefulPartitionedCall/model_1/model/activation_11/activation_4/add/y", "shape": [], "dtype": "float32"}, {"name": "StatefulPartitionedCall/model_1/model/activation_10/activation_3/mul/y", "shape": [], "dtype": "float32"}, {"name": "StatefulPartitionedCall/model_1/model/activation_10/activation_3/add/y", "shape": [], "dtype": "float32"}, {"name": "StatefulPartitionedCall/model_1/model/activation_8/activation_2/mul/y", "shape": [], "dtype": "float32"}, {"name": "StatefulPartitionedCall/model_1/model/activation_8/activation_2/add/y", "shape": [], "dtype": "float32"}, {"name": "StatefulPartitionedCall/model_1/model/activation_7/activation_1/mul/y", "shape": [], "dtype": "float32"}, {"name": "StatefulPartitionedCall/model_1/model/activation_7/activation_1/add/y", "shape": [], "dtype": "float32"}, {"name": "StatefulPartitionedCall/model_1/model/expanded_conv_2/project/BatchNorm/batchnorm/sub", "shape": [24], "dtype": "float32"}, {"name": "StatefulPartitionedCall/model_1/model/activation/activation/mul/y", "shape": [], "dtype": "float32"}, {"name": "StatefulPartitionedCall/model_1/model/activation/activation/add/y", "shape": [], "dtype": "float32"}, {"name": "StatefulPartitionedCall/model_1/gray2rgb/Tile/multiples", "shape": [4], "dtype": "int32"}, {"name": "ConstantFolding/StatefulPartitionedCall/model_1/model/input_normalize/truediv_recip", "shape": [], "dtype": "float32"}, {"name": "StatefulPartitionedCall/model_1/model/input_normalize/sub/y", "shape": [], "dtype": "float32"}, {"name": "StatefulPartitionedCall/model_1/model/Conv_pad/Pad/paddings", "shape": [4, 2], "dtype": "int32"}, {"name": "StatefulPartitionedCall/model_1/model/Conv/Conv2D/merged_input", "shape": [3, 3, 3, 16], "dtype": "float32"}, {"name": "StatefulPartitionedCall/model_1/model/Conv/BatchNorm/batchnorm/sub", "shape": [16], "dtype": "float32"}, {"name": "StatefulPartitionedCall/model_1/model/expanded_conv/depthwise/Conv/depthwise/ReadVariableOp", "shape": [3, 3, 16, 1], "dtype": "float32"}, {"name": "StatefulPartitionedCall/model_1/model/expanded_conv/depthwise/BatchNorm/batchnorm/mul", "shape": [16], "dtype": "float32"}, {"name": "StatefulPartitionedCall/model_1/model/expanded_conv/depthwise/BatchNorm/batchnorm/sub", "shape": [16], "dtype": "float32"}, {"name": "StatefulPartitionedCall/model_1/model/expanded_conv/squeeze_excite/AvgPool/Mean/reduction_indices", "shape": [2], "dtype": "int32"}, {"name": "StatefulPartitionedCall/model_1/model/reshape/strided_slice/stack", "shape": [1], "dtype": "int32"}, {"name": "StatefulPartitionedCall/model_1/model/reshape/strided_slice/stack_1", "shape": [1], "dtype": "int32"}, {"name": "StatefulPartitionedCall/model_1/model/reshape/strided_slice/stack_2", "shape": [1], "dtype": "int32"}, {"name": "StatefulPartitionedCall/model_1/model/reshape/Reshape/shape/1", "shape": [], "dtype": "int32"}, {"name": "StatefulPartitionedCall/model_1/model/reshape/Reshape/shape/2", "shape": [], "dtype": "int32"}, {"name": "StatefulPartitionedCall/model_1/model/reshape/Reshape/shape/3", "shape": [], "dtype": "int32"}, {"name": "StatefulPartitionedCall/model_1/model/expanded_conv/squeeze_excite/Conv/Conv2D/ReadVariableOp", "shape": [1, 1, 16, 8], "dtype": "float32"}, {"name": "StatefulPartitionedCall/model_1/model/expanded_conv/squeeze_excite/Conv/BiasAdd/ReadVariableOp", "shape": [8], "dtype": "float32"}, {"name": "StatefulPartitionedCall/model_1/model/expanded_conv/squeeze_excite/Conv_1/Conv2D/ReadVariableOp", "shape": [1, 1, 8, 16], "dtype": "float32"}, {"name": "StatefulPartitionedCall/model_1/model/expanded_conv/squeeze_excite/Conv_1/BiasAdd/ReadVariableOp", "shape": [16], "dtype": "float32"}, {"name": "StatefulPartitionedCall/model_1/model/activation_2/Const", "shape": [], "dtype": "float32"}, {"name": "StatefulPartitionedCall/model_1/model/activation_2/Const_1", "shape": [], "dtype": "float32"}, {"name": "StatefulPartitionedCall/model_1/model/activation_2/clip_by_value/Minimum/y", "shape": [], "dtype": "float32"}, {"name": "StatefulPartitionedCall/model_1/model/activation_2/clip_by_value/y", "shape": [], "dtype": "float32"}, {"name": "StatefulPartitionedCall/model_1/model/expanded_conv/project/Conv2D/merged_input", "shape": [1, 1, 16, 16], "dtype": "float32"}, {"name": "StatefulPartitionedCall/model_1/model/expanded_conv/project/BatchNorm/batchnorm/sub", "shape": [16], "dtype": "float32"}, {"name": "StatefulPartitionedCall/model_1/model/expanded_conv_1/expand/Conv2D/merged_input", "shape": [1, 1, 16, 72], "dtype": "float32"}, {"name": "StatefulPartitionedCall/model_1/model/expanded_conv_1/expand/BatchNorm/batchnorm/sub", "shape": [72], "dtype": "float32"}, {"name": "StatefulPartitionedCall/model_1/model/expanded_conv_1/depthwise/Conv/depthwise/ReadVariableOp", "shape": [3, 3, 72, 1], "dtype": "float32"}, {"name": "StatefulPartitionedCall/model_1/model/expanded_conv_1/depthwise/BatchNorm/batchnorm/mul", "shape": [72], "dtype": "float32"}, {"name": "StatefulPartitionedCall/model_1/model/expanded_conv_1/depthwise/BatchNorm/batchnorm/sub", "shape": [72], "dtype": "float32"}, {"name": "StatefulPartitionedCall/model_1/model/expanded_conv_1/project/Conv2D/merged_input", "shape": [1, 1, 72, 24], "dtype": "float32"}, {"name": "StatefulPartitionedCall/model_1/model/expanded_conv_1/project/BatchNorm/batchnorm/sub", "shape": [24], "dtype": "float32"}, {"name": "StatefulPartitionedCall/model_1/model/expanded_conv_2/expand/Conv2D/merged_input", "shape": [1, 1, 24, 88], "dtype": "float32"}, {"name": "StatefulPartitionedCall/model_1/model/expanded_conv_2/expand/BatchNorm/batchnorm/sub", "shape": [88], "dtype": "float32"}, {"name": "StatefulPartitionedCall/model_1/model/expanded_conv_2/depthwise/Conv/depthwise/ReadVariableOp", "shape": [3, 3, 88, 1], "dtype": "float32"}, {"name": "StatefulPartitionedCall/model_1/model/expanded_conv_2/depthwise/BatchNorm/batchnorm/mul", "shape": [88], "dtype": "float32"}, {"name": "StatefulPartitionedCall/model_1/model/expanded_conv_2/depthwise/BatchNorm/batchnorm/sub", "shape": [88], "dtype": "float32"}, {"name": "StatefulPartitionedCall/model_1/model/expanded_conv_2/project/Conv2D/merged_input", "shape": [1, 1, 88, 24], "dtype": "float32"}, {"name": "StatefulPartitionedCall/model_1/model/expanded_conv_3/expand/Conv2D/merged_input", "shape": [1, 1, 24, 96], "dtype": "float32"}, {"name": "StatefulPartitionedCall/model_1/model/expanded_conv_3/expand/BatchNorm/batchnorm/sub", "shape": [96], "dtype": "float32"}, {"name": "StatefulPartitionedCall/model_1/model/expanded_conv_3/depthwise/Conv/depthwise/ReadVariableOp", "shape": [5, 5, 96, 1], "dtype": "float32"}, {"name": "StatefulPartitionedCall/model_1/model/expanded_conv_3/depthwise/BatchNorm/batchnorm/mul", "shape": [96], "dtype": "float32"}, {"name": "StatefulPartitionedCall/model_1/model/expanded_conv_3/depthwise/BatchNorm/batchnorm/sub", "shape": [96], "dtype": "float32"}, {"name": "StatefulPartitionedCall/model_1/model/expanded_conv_3/squeeze_excite/AvgPool/Mean/reduction_indices", "shape": [2], "dtype": "int32"}, {"name": "StatefulPartitionedCall/model_1/model/reshape_1/strided_slice/stack", "shape": [1], "dtype": "int32"}, {"name": "StatefulPartitionedCall/model_1/model/reshape_1/strided_slice/stack_1", "shape": [1], "dtype": "int32"}, {"name": "StatefulPartitionedCall/model_1/model/reshape_1/strided_slice/stack_2", "shape": [1], "dtype": "int32"}, {"name": "StatefulPartitionedCall/model_1/model/reshape_1/Reshape/shape/1", "shape": [], "dtype": "int32"}, {"name": "StatefulPartitionedCall/model_1/model/reshape_1/Reshape/shape/2", "shape": [], "dtype": "int32"}, {"name": "StatefulPartitionedCall/model_1/model/reshape_1/Reshape/shape/3", "shape": [], "dtype": "int32"}, {"name": "StatefulPartitionedCall/model_1/model/expanded_conv_3/squeeze_excite/Conv/Conv2D/ReadVariableOp", "shape": [1, 1, 96, 24], "dtype": "float32"}, {"name": "StatefulPartitionedCall/model_1/model/expanded_conv_3/squeeze_excite/Conv/BiasAdd/ReadVariableOp", "shape": [24], "dtype": "float32"}, {"name": "StatefulPartitionedCall/model_1/model/expanded_conv_3/squeeze_excite/Conv_1/Conv2D/ReadVariableOp", "shape": [1, 1, 24, 96], "dtype": "float32"}, {"name": "StatefulPartitionedCall/model_1/model/expanded_conv_3/squeeze_excite/Conv_1/BiasAdd/ReadVariableOp", "shape": [96], "dtype": "float32"}, {"name": "StatefulPartitionedCall/model_1/model/activation_9/Const", "shape": [], "dtype": "float32"}, {"name": "StatefulPartitionedCall/model_1/model/activation_9/Const_1", "shape": [], "dtype": "float32"}, {"name": "StatefulPartitionedCall/model_1/model/activation_9/clip_by_value/Minimum/y", "shape": [], "dtype": "float32"}, {"name": "StatefulPartitionedCall/model_1/model/activation_9/clip_by_value/y", "shape": [], "dtype": "float32"}, {"name": "StatefulPartitionedCall/model_1/model/expanded_conv_3/project/Conv2D/merged_input", "shape": [1, 1, 96, 40], "dtype": "float32"}, {"name": "StatefulPartitionedCall/model_1/model/expanded_conv_3/project/BatchNorm/batchnorm/sub", "shape": [40], "dtype": "float32"}, {"name": "StatefulPartitionedCall/model_1/model/expanded_conv_4/expand/Conv2D/merged_input", "shape": [1, 1, 40, 240], "dtype": "float32"}, {"name": "StatefulPartitionedCall/model_1/model/expanded_conv_4/expand/BatchNorm/batchnorm/sub", "shape": [240], "dtype": "float32"}, {"name": "StatefulPartitionedCall/model_1/model/expanded_conv_4/depthwise/Conv/depthwise/SpaceToBatchND/block_shape", "shape": [2], "dtype": "int32"}, {"name": "StatefulPartitionedCall/model_1/model/expanded_conv_4/depthwise/Conv/depthwise/SpaceToBatchND/paddings", "shape": [2, 2], "dtype": "int32"}, {"name": "StatefulPartitionedCall/model_1/model/expanded_conv_4/depthwise/Conv/depthwise/ReadVariableOp", "shape": [5, 5, 240, 1], "dtype": "float32"}, {"name": "StatefulPartitionedCall/model_1/model/expanded_conv_4/depthwise/Conv/depthwise/BatchToSpaceND/block_shape", "shape": [2], "dtype": "int32"}, {"name": "StatefulPartitionedCall/model_1/model/expanded_conv_4/depthwise/Conv/depthwise/BatchToSpaceND/crops", "shape": [2, 2], "dtype": "int32"}, {"name": "StatefulPartitionedCall/model_1/model/expanded_conv_4/depthwise/BatchNorm/batchnorm/mul", "shape": [240], "dtype": "float32"}, {"name": "StatefulPartitionedCall/model_1/model/expanded_conv_4/depthwise/BatchNorm/batchnorm/sub", "shape": [240], "dtype": "float32"}, {"name": "StatefulPartitionedCall/model_1/model/expanded_conv_4/squeeze_excite/AvgPool/Mean/reduction_indices", "shape": [2], "dtype": "int32"}, {"name": "StatefulPartitionedCall/model_1/model/reshape_2/strided_slice/stack", "shape": [1], "dtype": "int32"}, {"name": "StatefulPartitionedCall/model_1/model/reshape_2/strided_slice/stack_1", "shape": [1], "dtype": "int32"}, {"name": "StatefulPartitionedCall/model_1/model/reshape_2/strided_slice/stack_2", "shape": [1], "dtype": "int32"}, {"name": "StatefulPartitionedCall/model_1/model/reshape_2/Reshape/shape/1", "shape": [], "dtype": "int32"}, {"name": "StatefulPartitionedCall/model_1/model/reshape_2/Reshape/shape/2", "shape": [], "dtype": "int32"}, {"name": "StatefulPartitionedCall/model_1/model/reshape_2/Reshape/shape/3", "shape": [], "dtype": "int32"}, {"name": "StatefulPartitionedCall/model_1/model/expanded_conv_4/squeeze_excite/Conv/Conv2D/ReadVariableOp", "shape": [1, 1, 240, 64], "dtype": "float32"}, {"name": "StatefulPartitionedCall/model_1/model/expanded_conv_4/squeeze_excite/Conv/BiasAdd/ReadVariableOp", "shape": [64], "dtype": "float32"}, {"name": "StatefulPartitionedCall/model_1/model/expanded_conv_4/squeeze_excite/Conv_1/Conv2D/ReadVariableOp", "shape": [1, 1, 64, 240], "dtype": "float32"}, {"name": "StatefulPartitionedCall/model_1/model/expanded_conv_4/squeeze_excite/Conv_1/BiasAdd/ReadVariableOp", "shape": [240], "dtype": "float32"}, {"name": "StatefulPartitionedCall/model_1/model/activation_12/Const", "shape": [], "dtype": "float32"}, {"name": "StatefulPartitionedCall/model_1/model/activation_12/Const_1", "shape": [], "dtype": "float32"}, {"name": "StatefulPartitionedCall/model_1/model/activation_12/clip_by_value/Minimum/y", "shape": [], "dtype": "float32"}, {"name": "StatefulPartitionedCall/model_1/model/activation_12/clip_by_value/y", "shape": [], "dtype": "float32"}, {"name": "StatefulPartitionedCall/model_1/model/expanded_conv_4/project/Conv2D/merged_input", "shape": [1, 1, 240, 40], "dtype": "float32"}, {"name": "StatefulPartitionedCall/model_1/model/expanded_conv_4/project/BatchNorm/batchnorm/sub", "shape": [40], "dtype": "float32"}, {"name": "StatefulPartitionedCall/model_1/model/expanded_conv_5/expand/Conv2D/merged_input", "shape": [1, 1, 40, 240], "dtype": "float32"}, {"name": "StatefulPartitionedCall/model_1/model/expanded_conv_5/expand/BatchNorm/batchnorm/sub", "shape": [240], "dtype": "float32"}, {"name": "StatefulPartitionedCall/model_1/model/expanded_conv_5/depthwise/Conv/depthwise/SpaceToBatchND/block_shape", "shape": [2], "dtype": "int32"}, {"name": "StatefulPartitionedCall/model_1/model/expanded_conv_5/depthwise/Conv/depthwise/SpaceToBatchND/paddings", "shape": [2, 2], "dtype": "int32"}, {"name": "StatefulPartitionedCall/model_1/model/expanded_conv_5/depthwise/Conv/depthwise/ReadVariableOp", "shape": [5, 5, 240, 1], "dtype": "float32"}, {"name": "StatefulPartitionedCall/model_1/model/expanded_conv_5/depthwise/Conv/depthwise/BatchToSpaceND/block_shape", "shape": [2], "dtype": "int32"}, {"name": "StatefulPartitionedCall/model_1/model/expanded_conv_5/depthwise/Conv/depthwise/BatchToSpaceND/crops", "shape": [2, 2], "dtype": "int32"}, {"name": "StatefulPartitionedCall/model_1/model/expanded_conv_5/depthwise/BatchNorm/batchnorm/mul", "shape": [240], "dtype": "float32"}, {"name": "StatefulPartitionedCall/model_1/model/expanded_conv_5/depthwise/BatchNorm/batchnorm/sub", "shape": [240], "dtype": "float32"}, {"name": "StatefulPartitionedCall/model_1/model/expanded_conv_5/squeeze_excite/AvgPool/Mean/reduction_indices", "shape": [2], "dtype": "int32"}, {"name": "StatefulPartitionedCall/model_1/model/reshape_3/strided_slice/stack", "shape": [1], "dtype": "int32"}, {"name": "StatefulPartitionedCall/model_1/model/reshape_3/strided_slice/stack_1", "shape": [1], "dtype": "int32"}, {"name": "StatefulPartitionedCall/model_1/model/reshape_3/strided_slice/stack_2", "shape": [1], "dtype": "int32"}, {"name": "StatefulPartitionedCall/model_1/model/reshape_3/Reshape/shape/1", "shape": [], "dtype": "int32"}, {"name": "StatefulPartitionedCall/model_1/model/reshape_3/Reshape/shape/2", "shape": [], "dtype": "int32"}, {"name": "StatefulPartitionedCall/model_1/model/reshape_3/Reshape/shape/3", "shape": [], "dtype": "int32"}, {"name": "StatefulPartitionedCall/model_1/model/expanded_conv_5/squeeze_excite/Conv/Conv2D/ReadVariableOp", "shape": [1, 1, 240, 64], "dtype": "float32"}, {"name": "StatefulPartitionedCall/model_1/model/expanded_conv_5/squeeze_excite/Conv/BiasAdd/ReadVariableOp", "shape": [64], "dtype": "float32"}, {"name": "StatefulPartitionedCall/model_1/model/expanded_conv_5/squeeze_excite/Conv_1/Conv2D/ReadVariableOp", "shape": [1, 1, 64, 240], "dtype": "float32"}, {"name": "StatefulPartitionedCall/model_1/model/expanded_conv_5/squeeze_excite/Conv_1/BiasAdd/ReadVariableOp", "shape": [240], "dtype": "float32"}, {"name": "StatefulPartitionedCall/model_1/model/activation_15/Const", "shape": [], "dtype": "float32"}, {"name": "StatefulPartitionedCall/model_1/model/activation_15/Const_1", "shape": [], "dtype": "float32"}, {"name": "StatefulPartitionedCall/model_1/model/activation_15/clip_by_value/Minimum/y", "shape": [], "dtype": "float32"}, {"name": "StatefulPartitionedCall/model_1/model/activation_15/clip_by_value/y", "shape": [], "dtype": "float32"}, {"name": "StatefulPartitionedCall/model_1/model/expanded_conv_5/project/Conv2D/merged_input", "shape": [1, 1, 240, 40], "dtype": "float32"}, {"name": "StatefulPartitionedCall/model_1/model/expanded_conv_5/project/BatchNorm/batchnorm/sub", "shape": [40], "dtype": "float32"}, {"name": "StatefulPartitionedCall/model_1/model/expanded_conv_6/expand/Conv2D/merged_input", "shape": [1, 1, 40, 120], "dtype": "float32"}, {"name": "StatefulPartitionedCall/model_1/model/expanded_conv_6/expand/BatchNorm/batchnorm/sub", "shape": [120], "dtype": "float32"}, {"name": "StatefulPartitionedCall/model_1/model/expanded_conv_6/depthwise/Conv/depthwise/SpaceToBatchND/block_shape", "shape": [2], "dtype": "int32"}, {"name": "StatefulPartitionedCall/model_1/model/expanded_conv_6/depthwise/Conv/depthwise/SpaceToBatchND/paddings", "shape": [2, 2], "dtype": "int32"}, {"name": "StatefulPartitionedCall/model_1/model/expanded_conv_6/depthwise/Conv/depthwise/ReadVariableOp", "shape": [5, 5, 120, 1], "dtype": "float32"}, {"name": "StatefulPartitionedCall/model_1/model/expanded_conv_6/depthwise/Conv/depthwise/BatchToSpaceND/block_shape", "shape": [2], "dtype": "int32"}, {"name": "StatefulPartitionedCall/model_1/model/expanded_conv_6/depthwise/Conv/depthwise/BatchToSpaceND/crops", "shape": [2, 2], "dtype": "int32"}, {"name": "StatefulPartitionedCall/model_1/model/expanded_conv_6/depthwise/BatchNorm/batchnorm/mul", "shape": [120], "dtype": "float32"}, {"name": "StatefulPartitionedCall/model_1/model/expanded_conv_6/depthwise/BatchNorm/batchnorm/sub", "shape": [120], "dtype": "float32"}, {"name": "StatefulPartitionedCall/model_1/model/expanded_conv_6/squeeze_excite/AvgPool/Mean/reduction_indices", "shape": [2], "dtype": "int32"}, {"name": "StatefulPartitionedCall/model_1/model/reshape_4/strided_slice/stack", "shape": [1], "dtype": "int32"}, {"name": "StatefulPartitionedCall/model_1/model/reshape_4/strided_slice/stack_1", "shape": [1], "dtype": "int32"}, {"name": "StatefulPartitionedCall/model_1/model/reshape_4/strided_slice/stack_2", "shape": [1], "dtype": "int32"}, {"name": "StatefulPartitionedCall/model_1/model/reshape_4/Reshape/shape/1", "shape": [], "dtype": "int32"}, {"name": "StatefulPartitionedCall/model_1/model/reshape_4/Reshape/shape/2", "shape": [], "dtype": "int32"}, {"name": "StatefulPartitionedCall/model_1/model/reshape_4/Reshape/shape/3", "shape": [], "dtype": "int32"}, {"name": "StatefulPartitionedCall/model_1/model/expanded_conv_6/squeeze_excite/Conv/Conv2D/ReadVariableOp", "shape": [1, 1, 120, 32], "dtype": "float32"}, {"name": "StatefulPartitionedCall/model_1/model/expanded_conv_6/squeeze_excite/Conv/BiasAdd/ReadVariableOp", "shape": [32], "dtype": "float32"}, {"name": "StatefulPartitionedCall/model_1/model/expanded_conv_6/squeeze_excite/Conv_1/Conv2D/ReadVariableOp", "shape": [1, 1, 32, 120], "dtype": "float32"}, {"name": "StatefulPartitionedCall/model_1/model/expanded_conv_6/squeeze_excite/Conv_1/BiasAdd/ReadVariableOp", "shape": [120], "dtype": "float32"}, {"name": "StatefulPartitionedCall/model_1/model/activation_18/Const", "shape": [], "dtype": "float32"}, {"name": "StatefulPartitionedCall/model_1/model/activation_18/Const_1", "shape": [], "dtype": "float32"}, {"name": "StatefulPartitionedCall/model_1/model/activation_18/clip_by_value/Minimum/y", "shape": [], "dtype": "float32"}, {"name": "StatefulPartitionedCall/model_1/model/activation_18/clip_by_value/y", "shape": [], "dtype": "float32"}, {"name": "StatefulPartitionedCall/model_1/model/expanded_conv_6/project/Conv2D/merged_input", "shape": [1, 1, 120, 48], "dtype": "float32"}, {"name": "StatefulPartitionedCall/model_1/model/expanded_conv_6/project/BatchNorm/batchnorm/sub", "shape": [48], "dtype": "float32"}, {"name": "StatefulPartitionedCall/model_1/model/expanded_conv_7/expand/Conv2D/merged_input", "shape": [1, 1, 48, 144], "dtype": "float32"}, {"name": "StatefulPartitionedCall/model_1/model/expanded_conv_7/expand/BatchNorm/batchnorm/sub", "shape": [144], "dtype": "float32"}, {"name": "StatefulPartitionedCall/model_1/model/expanded_conv_7/depthwise/Conv/depthwise/SpaceToBatchND/block_shape", "shape": [2], "dtype": "int32"}, {"name": "StatefulPartitionedCall/model_1/model/expanded_conv_7/depthwise/Conv/depthwise/SpaceToBatchND/paddings", "shape": [2, 2], "dtype": "int32"}, {"name": "StatefulPartitionedCall/model_1/model/expanded_conv_7/depthwise/Conv/depthwise/ReadVariableOp", "shape": [5, 5, 144, 1], "dtype": "float32"}, {"name": "StatefulPartitionedCall/model_1/model/expanded_conv_7/depthwise/Conv/depthwise/BatchToSpaceND/block_shape", "shape": [2], "dtype": "int32"}, {"name": "StatefulPartitionedCall/model_1/model/expanded_conv_7/depthwise/Conv/depthwise/BatchToSpaceND/crops", "shape": [2, 2], "dtype": "int32"}, {"name": "StatefulPartitionedCall/model_1/model/expanded_conv_7/depthwise/BatchNorm/batchnorm/mul", "shape": [144], "dtype": "float32"}, {"name": "StatefulPartitionedCall/model_1/model/expanded_conv_7/depthwise/BatchNorm/batchnorm/sub", "shape": [144], "dtype": "float32"}, {"name": "StatefulPartitionedCall/model_1/model/expanded_conv_7/squeeze_excite/AvgPool/Mean/reduction_indices", "shape": [2], "dtype": "int32"}, {"name": "StatefulPartitionedCall/model_1/model/reshape_5/strided_slice/stack", "shape": [1], "dtype": "int32"}, {"name": "StatefulPartitionedCall/model_1/model/reshape_5/strided_slice/stack_1", "shape": [1], "dtype": "int32"}, {"name": "StatefulPartitionedCall/model_1/model/reshape_5/strided_slice/stack_2", "shape": [1], "dtype": "int32"}, {"name": "StatefulPartitionedCall/model_1/model/reshape_5/Reshape/shape/1", "shape": [], "dtype": "int32"}, {"name": "StatefulPartitionedCall/model_1/model/reshape_5/Reshape/shape/2", "shape": [], "dtype": "int32"}, {"name": "StatefulPartitionedCall/model_1/model/reshape_5/Reshape/shape/3", "shape": [], "dtype": "int32"}, {"name": "StatefulPartitionedCall/model_1/model/expanded_conv_7/squeeze_excite/Conv/Conv2D/ReadVariableOp", "shape": [1, 1, 144, 40], "dtype": "float32"}, {"name": "StatefulPartitionedCall/model_1/model/expanded_conv_7/squeeze_excite/Conv/BiasAdd/ReadVariableOp", "shape": [40], "dtype": "float32"}, {"name": "StatefulPartitionedCall/model_1/model/expanded_conv_7/squeeze_excite/Conv_1/Conv2D/ReadVariableOp", "shape": [1, 1, 40, 144], "dtype": "float32"}, {"name": "StatefulPartitionedCall/model_1/model/expanded_conv_7/squeeze_excite/Conv_1/BiasAdd/ReadVariableOp", "shape": [144], "dtype": "float32"}, {"name": "StatefulPartitionedCall/model_1/model/activation_21/Const", "shape": [], "dtype": "float32"}, {"name": "StatefulPartitionedCall/model_1/model/activation_21/Const_1", "shape": [], "dtype": "float32"}, {"name": "StatefulPartitionedCall/model_1/model/activation_21/clip_by_value/Minimum/y", "shape": [], "dtype": "float32"}, {"name": "StatefulPartitionedCall/model_1/model/activation_21/clip_by_value/y", "shape": [], "dtype": "float32"}, {"name": "StatefulPartitionedCall/model_1/model/expanded_conv_7/project/Conv2D/merged_input", "shape": [1, 1, 144, 48], "dtype": "float32"}, {"name": "StatefulPartitionedCall/model_1/model/expanded_conv_7/project/BatchNorm/batchnorm/sub", "shape": [48], "dtype": "float32"}, {"name": "StatefulPartitionedCall/model_1/model/expanded_conv_8/expand/Conv2D/merged_input", "shape": [1, 1, 48, 288], "dtype": "float32"}, {"name": "StatefulPartitionedCall/model_1/model/expanded_conv_8/expand/BatchNorm/batchnorm/sub", "shape": [288], "dtype": "float32"}, {"name": "StatefulPartitionedCall/model_1/model/expanded_conv_8/depthwise/Conv/depthwise/SpaceToBatchND/block_shape", "shape": [2], "dtype": "int32"}, {"name": "StatefulPartitionedCall/model_1/model/expanded_conv_8/depthwise/Conv/depthwise/SpaceToBatchND/paddings", "shape": [2, 2], "dtype": "int32"}, {"name": "StatefulPartitionedCall/model_1/model/expanded_conv_8/depthwise/Conv/depthwise/ReadVariableOp", "shape": [5, 5, 288, 1], "dtype": "float32"}, {"name": "StatefulPartitionedCall/model_1/model/expanded_conv_8/depthwise/Conv/depthwise/BatchToSpaceND/block_shape", "shape": [2], "dtype": "int32"}, {"name": "StatefulPartitionedCall/model_1/model/expanded_conv_8/depthwise/Conv/depthwise/BatchToSpaceND/crops", "shape": [2, 2], "dtype": "int32"}, {"name": "StatefulPartitionedCall/model_1/model/expanded_conv_8/depthwise/BatchNorm/batchnorm/mul", "shape": [288], "dtype": "float32"}, {"name": "StatefulPartitionedCall/model_1/model/expanded_conv_8/depthwise/BatchNorm/batchnorm/sub", "shape": [288], "dtype": "float32"}, {"name": "StatefulPartitionedCall/model_1/model/expanded_conv_8/squeeze_excite/AvgPool/Mean/reduction_indices", "shape": [2], "dtype": "int32"}, {"name": "StatefulPartitionedCall/model_1/model/reshape_6/strided_slice/stack", "shape": [1], "dtype": "int32"}, {"name": "StatefulPartitionedCall/model_1/model/reshape_6/strided_slice/stack_1", "shape": [1], "dtype": "int32"}, {"name": "StatefulPartitionedCall/model_1/model/reshape_6/strided_slice/stack_2", "shape": [1], "dtype": "int32"}, {"name": "StatefulPartitionedCall/model_1/model/reshape_6/Reshape/shape/1", "shape": [], "dtype": "int32"}, {"name": "StatefulPartitionedCall/model_1/model/reshape_6/Reshape/shape/2", "shape": [], "dtype": "int32"}, {"name": "StatefulPartitionedCall/model_1/model/reshape_6/Reshape/shape/3", "shape": [], "dtype": "int32"}, {"name": "StatefulPartitionedCall/model_1/model/expanded_conv_8/squeeze_excite/Conv/Conv2D/ReadVariableOp", "shape": [1, 1, 288, 72], "dtype": "float32"}, {"name": "StatefulPartitionedCall/model_1/model/expanded_conv_8/squeeze_excite/Conv/BiasAdd/ReadVariableOp", "shape": [72], "dtype": "float32"}, {"name": "StatefulPartitionedCall/model_1/model/expanded_conv_8/squeeze_excite/Conv_1/Conv2D/ReadVariableOp", "shape": [1, 1, 72, 288], "dtype": "float32"}, {"name": "StatefulPartitionedCall/model_1/model/expanded_conv_8/squeeze_excite/Conv_1/BiasAdd/ReadVariableOp", "shape": [288], "dtype": "float32"}, {"name": "StatefulPartitionedCall/model_1/model/activation_24/Const", "shape": [], "dtype": "float32"}, {"name": "StatefulPartitionedCall/model_1/model/activation_24/Const_1", "shape": [], "dtype": "float32"}, {"name": "StatefulPartitionedCall/model_1/model/activation_24/clip_by_value/Minimum/y", "shape": [], "dtype": "float32"}, {"name": "StatefulPartitionedCall/model_1/model/activation_24/clip_by_value/y", "shape": [], "dtype": "float32"}, {"name": "StatefulPartitionedCall/model_1/model/expanded_conv_8/project/Conv2D/merged_input", "shape": [1, 1, 288, 96], "dtype": "float32"}, {"name": "StatefulPartitionedCall/model_1/model/expanded_conv_8/project/BatchNorm/batchnorm/sub", "shape": [96], "dtype": "float32"}, {"name": "StatefulPartitionedCall/model_1/model/expanded_conv_9/expand/Conv2D/merged_input", "shape": [1, 1, 96, 576], "dtype": "float32"}, {"name": "StatefulPartitionedCall/model_1/model/expanded_conv_9/expand/BatchNorm/batchnorm/sub", "shape": [576], "dtype": "float32"}, {"name": "StatefulPartitionedCall/model_1/model/expanded_conv_9/depthwise/Conv/depthwise/SpaceToBatchND/block_shape", "shape": [2], "dtype": "int32"}, {"name": "StatefulPartitionedCall/model_1/model/expanded_conv_9/depthwise/Conv/depthwise/SpaceToBatchND/paddings", "shape": [2, 2], "dtype": "int32"}, {"name": "StatefulPartitionedCall/model_1/model/expanded_conv_9/depthwise/Conv/depthwise/ReadVariableOp", "shape": [5, 5, 576, 1], "dtype": "float32"}, {"name": "StatefulPartitionedCall/model_1/model/expanded_conv_9/depthwise/Conv/depthwise/BatchToSpaceND/block_shape", "shape": [2], "dtype": "int32"}, {"name": "StatefulPartitionedCall/model_1/model/expanded_conv_9/depthwise/Conv/depthwise/BatchToSpaceND/crops", "shape": [2, 2], "dtype": "int32"}, {"name": "StatefulPartitionedCall/model_1/model/expanded_conv_9/depthwise/BatchNorm/batchnorm/mul", "shape": [576], "dtype": "float32"}, {"name": "StatefulPartitionedCall/model_1/model/expanded_conv_9/depthwise/BatchNorm/batchnorm/sub", "shape": [576], "dtype": "float32"}, {"name": "StatefulPartitionedCall/model_1/model/expanded_conv_9/squeeze_excite/AvgPool/Mean/reduction_indices", "shape": [2], "dtype": "int32"}, {"name": "StatefulPartitionedCall/model_1/model/reshape_7/strided_slice/stack", "shape": [1], "dtype": "int32"}, {"name": "StatefulPartitionedCall/model_1/model/reshape_7/strided_slice/stack_1", "shape": [1], "dtype": "int32"}, {"name": "StatefulPartitionedCall/model_1/model/reshape_7/strided_slice/stack_2", "shape": [1], "dtype": "int32"}, {"name": "StatefulPartitionedCall/model_1/model/reshape_7/Reshape/shape/1", "shape": [], "dtype": "int32"}, {"name": "StatefulPartitionedCall/model_1/model/reshape_7/Reshape/shape/2", "shape": [], "dtype": "int32"}, {"name": "StatefulPartitionedCall/model_1/model/reshape_7/Reshape/shape/3", "shape": [], "dtype": "int32"}, {"name": "StatefulPartitionedCall/model_1/model/expanded_conv_9/squeeze_excite/Conv/Conv2D/ReadVariableOp", "shape": [1, 1, 576, 144], "dtype": "float32"}, {"name": "StatefulPartitionedCall/model_1/model/expanded_conv_9/squeeze_excite/Conv/BiasAdd/ReadVariableOp", "shape": [144], "dtype": "float32"}, {"name": "StatefulPartitionedCall/model_1/model/expanded_conv_9/squeeze_excite/Conv_1/Conv2D/ReadVariableOp", "shape": [1, 1, 144, 576], "dtype": "float32"}, {"name": "StatefulPartitionedCall/model_1/model/expanded_conv_9/squeeze_excite/Conv_1/BiasAdd/ReadVariableOp", "shape": [576], "dtype": "float32"}, {"name": "StatefulPartitionedCall/model_1/model/activation_27/Const", "shape": [], "dtype": "float32"}, {"name": "StatefulPartitionedCall/model_1/model/activation_27/Const_1", "shape": [], "dtype": "float32"}, {"name": "StatefulPartitionedCall/model_1/model/activation_27/clip_by_value/Minimum/y", "shape": [], "dtype": "float32"}, {"name": "StatefulPartitionedCall/model_1/model/activation_27/clip_by_value/y", "shape": [], "dtype": "float32"}, {"name": "StatefulPartitionedCall/model_1/model/expanded_conv_9/project/Conv2D/merged_input", "shape": [1, 1, 576, 96], "dtype": "float32"}, {"name": "StatefulPartitionedCall/model_1/model/expanded_conv_9/project/BatchNorm/batchnorm/sub", "shape": [96], "dtype": "float32"}, {"name": "StatefulPartitionedCall/model_1/model/expanded_conv_10/expand/Conv2D/merged_input", "shape": [1, 1, 96, 576], "dtype": "float32"}, {"name": "StatefulPartitionedCall/model_1/model/expanded_conv_10/expand/BatchNorm/batchnorm/sub", "shape": [576], "dtype": "float32"}, {"name": "StatefulPartitionedCall/model_1/model/expanded_conv_10/depthwise/Conv/depthwise/SpaceToBatchND/block_shape", "shape": [2], "dtype": "int32"}, {"name": "StatefulPartitionedCall/model_1/model/expanded_conv_10/depthwise/Conv/depthwise/SpaceToBatchND/paddings", "shape": [2, 2], "dtype": "int32"}, {"name": "StatefulPartitionedCall/model_1/model/expanded_conv_10/depthwise/Conv/depthwise/ReadVariableOp", "shape": [5, 5, 576, 1], "dtype": "float32"}, {"name": "StatefulPartitionedCall/model_1/model/expanded_conv_10/depthwise/Conv/depthwise/BatchToSpaceND/block_shape", "shape": [2], "dtype": "int32"}, {"name": "StatefulPartitionedCall/model_1/model/expanded_conv_10/depthwise/Conv/depthwise/BatchToSpaceND/crops", "shape": [2, 2], "dtype": "int32"}, {"name": "StatefulPartitionedCall/model_1/model/expanded_conv_10/depthwise/BatchNorm/batchnorm/mul", "shape": [576], "dtype": "float32"}, {"name": "StatefulPartitionedCall/model_1/model/expanded_conv_10/depthwise/BatchNorm/batchnorm/sub", "shape": [576], "dtype": "float32"}, {"name": "StatefulPartitionedCall/model_1/model/expanded_conv_10/squeeze_excite/AvgPool/Mean/reduction_indices", "shape": [2], "dtype": "int32"}, {"name": "StatefulPartitionedCall/model_1/model/reshape_8/strided_slice/stack", "shape": [1], "dtype": "int32"}, {"name": "StatefulPartitionedCall/model_1/model/reshape_8/strided_slice/stack_1", "shape": [1], "dtype": "int32"}, {"name": "StatefulPartitionedCall/model_1/model/reshape_8/strided_slice/stack_2", "shape": [1], "dtype": "int32"}, {"name": "StatefulPartitionedCall/model_1/model/reshape_8/Reshape/shape/1", "shape": [], "dtype": "int32"}, {"name": "StatefulPartitionedCall/model_1/model/reshape_8/Reshape/shape/2", "shape": [], "dtype": "int32"}, {"name": "StatefulPartitionedCall/model_1/model/reshape_8/Reshape/shape/3", "shape": [], "dtype": "int32"}, {"name": "StatefulPartitionedCall/model_1/model/expanded_conv_10/squeeze_excite/Conv/Conv2D/ReadVariableOp", "shape": [1, 1, 576, 144], "dtype": "float32"}, {"name": "StatefulPartitionedCall/model_1/model/expanded_conv_10/squeeze_excite/Conv/BiasAdd/ReadVariableOp", "shape": [144], "dtype": "float32"}, {"name": "StatefulPartitionedCall/model_1/model/expanded_conv_10/squeeze_excite/Conv_1/Conv2D/ReadVariableOp", "shape": [1, 1, 144, 576], "dtype": "float32"}, {"name": "StatefulPartitionedCall/model_1/model/expanded_conv_10/squeeze_excite/Conv_1/BiasAdd/ReadVariableOp", "shape": [576], "dtype": "float32"}, {"name": "StatefulPartitionedCall/model_1/model/activation_30/Const", "shape": [], "dtype": "float32"}, {"name": "StatefulPartitionedCall/model_1/model/activation_30/Const_1", "shape": [], "dtype": "float32"}, {"name": "StatefulPartitionedCall/model_1/model/activation_30/clip_by_value/Minimum/y", "shape": [], "dtype": "float32"}, {"name": "StatefulPartitionedCall/model_1/model/activation_30/clip_by_value/y", "shape": [], "dtype": "float32"}, {"name": "StatefulPartitionedCall/model_1/model/expanded_conv_10/project/Conv2D/merged_input", "shape": [1, 1, 576, 96], "dtype": "float32"}, {"name": "StatefulPartitionedCall/model_1/model/expanded_conv_10/project/BatchNorm/batchnorm/sub", "shape": [96], "dtype": "float32"}, {"name": "StatefulPartitionedCall/model_1/model/image_pooling/Conv2D/ReadVariableOp", "shape": [1, 1, 96, 256], "dtype": "float32"}, {"name": "StatefulPartitionedCall/model_1/model/flatten/Const", "shape": [2], "dtype": "int32"}, {"name": "StatefulPartitionedCall/model_1/model/tags/MatMul/ReadVariableOp", "shape": [256, 2], "dtype": "float32"}, {"name": "StatefulPartitionedCall/model_1/model/tags/BiasAdd/ReadVariableOp", "shape": [2], "dtype": "float32"}]}]}